05_pytorch_going_modular/models/05_going_modular_script_mode_tinyvgg_model.pth (torch, 36715 bytes, 10 tensors)

conv_block_1.0.weight f4 [10, 3, 3, 3]
000000 32 53 26 3e e5 b8 32 3e ea 9c ed bc 6f cb 43 3e
       0.16242674 0.17453344 -0.029005487 0.19120573
000010 a3 8a e7 bc 57 e5 58 3d 72 b1 a2 bd 85 b8 01 3e
       -0.02826435 0.05295309 -0.07944001 0.12668045
000020 c5 94 3b 3e 3c ad 07 be 33 4e 34 3e fa 7a 3d 3d
       0.1831847 -0.13249677 0.17607956 0.046259858
000030 41 dd 19 3e e5 ae 0d 3d 63 fb cf 3d 1a ee 9b bc
       0.15025808 0.03459062 0.1015537 -0.019034434
000040 5a ee 20 3e a6 5f 16 3d 93 fa a1 bd 6e e9 74 3d
       0.15715924 0.03671231 -0.07909121 0.05979293
000050 fb 7a 9d bd 08 04 4c bc 32 72 8a bd 93 6c 0d 3e
       -0.07689472 -0.012452133 -0.06760062 0.13810949
000060 7b 21 11 be 4d 27 9f bd 7c 9e 35 bd 9b ea ef bd
       -0.14172928 -0.07771168 -0.044340596 -0.11714669
000070 b9 a1 8e 3c 9f fc 40 be 43 f2 2d 3e 83 91 27 be
       0.0174111 -0.18846367 0.16986947 -0.16364102
000080 94 17 17 3e 1e a2 f5 3c f2 24 85 bd 23 2a ea 3d
       0.14755088 0.02998453 -0.065011874 0.11433818
000090 57 9c fa 3c d8 8d 20 3e 3a 7c c6 3c 77 9c 82 bd
       0.030592127 0.15679109 0.024229158 -0.063774996
0000a0 bc 9c 53 3d 5d da 53 bd 76 44 a3 3d c4 bb 2e 3e
       0.051663145 -0.05172192 0.07972042 0.17063814
0000b0 e6 ae da 3d a7 fa cd bd d1 62 bf 3d c0 b0 89 3c
       0.106778905 -0.10057574 0.093450196 0.016807914
0000c0 d2 e8 a1 3d 4e 99 04 be 6d 7a 51 be 4a 72 b5 bd
       0.07905735 -0.12949106 -0.20456858 -0.088596895
0000d0 de 37 25 be d8 73 10 3e c6 5b 0d 3d 59 57 73 3d
       -0.16134593 0.14106691 0.03451135 0.059409473
0000e0 84 31 27 3d b7 4e be bc 4d 53 06 3e a6 99 1f be
       0.040818706 -0.023230894 0.13117714 -0.15585956
0000f0 a8 b9 d8 bb dd 02 1a be 71 95 23 3d 33 94 9e bd
       -0.006613929 -0.15040155 0.03993744 -0.077431105
000100 9f d3 43 3d 40 09 53 bd 63 c4 18 3e 12 ac fe bd
       0.04780924 -0.051522493 0.14918666 -0.124351636
000110 6d 68 00 be 8f 64 fe bd db 0a 27 3e 6d bd 59 3d
       -0.12539835 -0.12421524 0.16312735 0.053159166
000120 c3 ec 30 3e 51 f2 2d be ef 02 4f be c5 1a 25 be
       0.17277817 -0.16986968 -0.20215963 -0.16123493
000130 f9 fd 0e be 83 9c 8a 3d f3 e2 70 3d 16 1a 19 3e
       -0.1396407 0.067681335 0.058810186 0.14951357
000140 70 29 e3 bd 2b 83 06 be 88 b8 cf 3d dc 50 a1 bd
       -0.11091888 -0.13135974 0.101426184 -0.07876751
000150 96 58 f0 3d e6 20 37 bd a6 50 e3 3d dd 11 18 be
       0.117356464 -0.04470911 0.11099367 -0.14850564
000160 ac e3 c3 bd b5 6a 71 3d 7b f6 59 3d f7 b8 1d bd
       -0.09564909 0.058939654 0.053213578 -0.038506474
000170 24 fe f9 3d aa af 11 3e 39 d3 00 be b4 78 b9 bd
       0.122066766 0.14227167 -0.12580575 -0.090562254
000180 24 6e 41 3e a3 54 57 bd 9b 5a 6c bd 3f ee 2b be
       0.18889672 -0.05257095 -0.057703596 -0.16790102
000190 56 e2 c1 bd c7 83 72 3d 1c 10 70 bb 3b 29 f3 bd
       -0.09466998 0.059207704 -0.0036630696 -0.118730985
0001a0 5a 51 a7 3c cb bb e4 bd 1f 54 11 be 43 5c b4 bd
       0.020424534 -0.11168631 -0.14192246 -0.0880666
0001b0 38 2c 52 be df 91 29 be ad 3b 1a 3e fb 93 07 3a
       -0.2052468 -0.16559552 0.15061827 0.0005171892
0001c0 5f 02 c1 3c d6 83 5d be 41 28 2a be e4 37 d0 bd
       0.023560701 -0.21632323 -0.16616918 -0.1016691
0001d0 3b d1 ea bb ca 3a 52 be 34 1a f8 bd 3d 09 1a be
       -0.0071660555 -0.20530239 -0.12114373 -0.15042587
0001e0 4e 3e fd bc a4 71 d1 bd 75 af 25 bd dc cb 28 be
       -0.030913498 -0.10226753 -0.040450532 -0.16484016
0001f0 e8 6d 29 be da 11 10 be 11 62 d2 bd cd e5 44 be
       -0.16545832 -0.1406931 -0.10272611 -0.19228287
000200 de 44 05 3e ad be 99 bd d6 ae 04 3e c3 4a fe 3c
       0.13014552 -0.07507072 0.1295732 0.031041509
000210 9c 28 4b be c2 41 c8 3d d7 dc b2 bd 75 fa ba bd
       -0.1983971 0.09778167 -0.08733528 -0.09129802
000220 2d 85 37 be ea cf 57 be 47 f7 18 3d bd 92 76 bd
       -0.17921896 -0.21075407 0.037345197 -0.060198534
000230 46 d3 6e 3d 4b e8 32 be 02 f1 01 3e b7 41 20 be
       0.058306955 -0.17471425 0.12689593 -0.15650068
000240 f6 3f 65 bd 44 da 8c 3c fa dc 9c 3d f2 b6 07 3e
       -0.0559692 0.01719392 0.076593354 0.13253382
000250 ab 8b 1b 3e 04 1f 33 be 7d c5 d2 3c 20 45 d7 bd
       0.15189998 -0.174923 0.025728935 -0.105112314
000260 ef 3b 31 bd e4 14 28 be e8 a2 1b 3e e0 83 26 be
       -0.043270048 -0.16414219 0.15198863 -0.16261244
000270 e2 55 a6 3d 41 39 38 3d 62 a6 26 3d b4 d9 fe bd
       0.081218496 0.044976477 0.04068602 -0.12443867
000280 95 fa 1b 3e df 5d a6 3c 4f 99 65 3c 07 c4 2c be
       0.15232308 0.020308433 0.014013602 -0.16871653
000290 78 ac a2 3d d4 7c 31 bd 9a 67 cb bd 53 00 29 3e
       0.07943052 -0.043331936 -0.0993187 0.1650403
0002a0 4a aa 02 3d 56 72 df bd f2 01 cc bd 7e ea 97 bc
       0.03190068 -0.1091048 -0.099613085 -0.018544432
0002b0 e4 ae d0 3d 99 a0 5b bd e3 dd f8 bd 1a 53 97 bd
       0.10189608 -0.053619955 -0.121516965 -0.07388897
0002c0 a2 00 1b be 8e f0 5b 3d a1 81 0b 3e 51 26 44 be
       -0.1513696 0.053696208 0.13623668 -0.19155242
0002d0 89 a2 24 3d 94 22 bd 3d 13 07 dd 3c d3 6b a0 bd
       0.040194068 0.09235111 0.026980912 -0.07833066
0002e0 d5 47 bc 3d 46 cf bf 3d 05 c7 6e 3d e0 4a 46 bd
       0.091933884 0.09365706 0.05829527 -0.04841125
0002f0 91 4f 82 bd fc 26 1d 3d 2c 23 84 bc f4 63 1e bd
       -0.06362832 0.038367257 -0.016130053 -0.03866954
000300 5d c8 0f 3e 5d b9 3a 3e d2 96 dc ba fe 6f ce bc
       0.14041276 0.18234773 -0.0016829616 -0.025199886
000310 f9 a2 a7 3c f1 50 c6 3b de 20 67 3d 80 6e 86 3d
       0.020463454 0.0060521294 0.05642783 0.06564045
000320 d8 19 25 be c9 b9 7b bd 75 a5 30 3e 2f 71 b1 3d
       -0.1612314 -0.061456475 0.17250617 0.08664166
000330 15 06 43 38 31 34 d9 bd a1 d9 da bd c5 dc 24 be
       4.6497287e-05 -0.10605658 -0.10686041 -0.16099842
000340 96 2f 4d bd c1 42 a2 3d 1c e3 08 3e 33 7b cc 3d
       -0.05009421 0.079228885 0.13367885 0.09984436
000350 68 de 21 be 8d cf d7 bd b8 5b a5 bc af 1b 4a 3e
       -0.15807498 -0.10537634 -0.020185336 0.19737123
000360 89 63 db 3c 94 fb 4c bd c5 1a a9 3d 70 94 8e bd
       0.02678086 -0.05004461 0.08257059 -0.06961906
000370 1f 90 fe bd cc 4e 15 3e 61 40 ae bd fc 1e 0f bd
       -0.12429833 0.1458084 -0.08508373 -0.03494166
000380 39 fb 3d be ef 88 02 3e ae da 14 3e 94 ea 95 3d
       -0.18552865 0.12747549 0.14536545 0.07320133
000390 15 d2 04 be 17 58 40 be b3 b6 1b be a5 3b 16 3e
       -0.12970765 -0.18783604 -0.15206413 0.1467119
0003a0 c5 9c c3 3d 2d fb 2a 3e 89 29 cd 3d 8a 1a 46 3d
       0.09551386 0.16697378 0.10017688 0.048365153
0003b0 cf 83 22 3a b9 63 14 be 11 e6 28 be 7d 72 34 be
       0.00061994506 -0.14491166 -0.16494013 -0.17621799
0003c0 31 7d a2 3d d9 23 c2 bd 4c e2 12 bd 35 0a fd bd
       0.079340346 -0.09479494 -0.035860345 -0.123554625
0003d0 80 ab 31 bd ad a7 15 be bb dd 0b be 8f 1f 5f 3d
       -0.043376446 -0.14614744 -0.13658802 0.054473456
0003e0 8d 98 8b bd e7 78 03 3e 5e a8 8e bd f9 06 19 be
       -0.06816206 0.1283909 -0.06965707 -0.14944066
0003f0 5f 11 25 bd 3d a0 de bd 70 cc 90 bd a4 9f 44 be
       -0.04029977 -0.10870407 -0.07070243 -0.19201523

conv_block_1.0.bias f4 [10]
000000 3e 95 af 3d ad 6c 48 be 96 01 09 3e 7f b3 2e 3e
       0.085733876 -0.19572707 0.13379511 0.1706066
000010 9d 63 12 3e 8c 18 8d bd a5 f4 2c be 75 e1 0b 3d
       0.14295812 -0.068894476 -0.168902 0.03415056
000020 80 37 08 3e 30 91 3c be
       0.13302422 -0.1841476

conv_block_1.2.weight f4 [10, 10, 3, 3]
000000 c5 7f 01 bd 52 4b 85 bd d8 76 6f bb eb 21 65 bd
       -0.03161599 -0.06508507 -0.0036539342 -0.05594055
000010 3e b0 31 bd eb 1a ed bc 57 50 dd bd 10 a0 ae 3d
       -0.04338097 -0.0289435 -0.10806339 0.08526623
000020 fb 23 c0 3d 94 54 88 bb 09 7e 30 bc 2f d5 09 bd
       0.09381863 -0.004160473 -0.010772237 -0.033650573
000030 6f 49 a5 bd 73 c2 06 be 63 60 6d 3d 22 a9 8b bd
       -0.08070647 -0.13160114 0.05795325 -0.06819369
000040 7f 1a 53 bd 43 bb 27 bc 30 3d 0f bd a7 71 19 bd
       -0.05153894 -0.010237518 -0.034970462 -0.037461903
000050 0d c1 a2 ba 9e f3 c1 bc a5 67 2c bd e7 a5 72 bd
       -0.0012417153 -0.023675736 -0.04209103 -0.059240248
000060 d8 12 b7 bd cd 52 a0 3d e2 56 3d bd 89 2a e1 3c
       -0.08939141 0.07828293 -0.046225436 0.027486103
000070 59 99 0d bd cd b1 d8 3b 65 63 c4 3d 5e 74 42 3d
       -0.03457007 0.0066129924 0.095892705 0.047474258
000080 52 56 c2 bd f9 12 17 3d 68 c5 cd 3d 77 66 e0 3c
       -0.094891205 0.036883328 0.10047418 0.027392609
000090 c4 8f 9c 3d 4f a8 e2 3d 1e f0 85 bc f2 97 bb 3c
       0.076446086 0.110672586 -0.016349848 0.022899602
0000a0 ce c9 90 bd f0 c5 c2 bc dc 0d 9c 3d 77 17 62 3d
       -0.07069741 -0.023776025 0.07619831 0.05519816
0000b0 09 e5 8f bd 15 23 92 bd 79 0e 83 bd 57 17 bf bd
       -0.07026107 -0.071355976 -0.06399245 -0.093306236
0000c0 66 3a 9c bd ca 84 af bc 32 4b a2 3d 78 1c dd 3c
       -0.07628326 -0.021425623 0.079244986 0.026991114
0000d0 b7 58 bd bd ab a4 bc bd 2f e4 28 3d 41 1e a0 bd
       -0.09245437 -0.092110954 0.041233238 -0.078182705
0000e0 d0 d1 17 bb 59 3b 4f 3d e7 3a 29 bd ce f8 17 bb
       -0.002316583 0.050593708 -0.04131594 -0.002318907
0000f0 da 5e 6b bb ac 07 25 bd 24 d5 1c bd e2 12 c5 bd
       -0.003591469 -0.04029052 -0.038289204 -0.09622742
000100 a7 f2 c7 bd bd cf 80 bd f1 43 c9 3d df 0e 77 bd
       -0.09763079 -0.06289623 0.09827412 -0.060316917
000110 2a c8 9f bd 11 67 a2 3c 2d 09 d0 3c 25 f5 6e 3d
       -0.0780185 0.019824537 0.025395 0.058339257
000120 b9 e5 9a 3d a0 c8 60 3d 38 9e ea bd 9b 3f ce 3b
       0.07563347 0.05487883 -0.11455959 0.0062942035
000130 03 b7 7f 3d 61 9c 94 bc 21 e1 87 bd a8 6b cd 3d
       0.062430393 -0.018140974 -0.06634737 0.100302994
000140 2b a1 23 bd f4 d4 61 bd 6a 1e b1 bd ff 90 1b 37
       -0.039948624 -0.05513473 -0.08648379 9.2724795e-06
000150 35 08 33 3d 9f c1 98 3c fd af 96 3c b3 41 bb bd
       0.043709 0.018647013 0.018394465 -0.091433905
000160 9a 22 be bd 43 f5 98 3b 2f e6 be 3d a4 be 69 3d
       -0.092839435 0.0046679094 0.09321248 0.057066575
000170 2c ba 84 bd b0 92 91 bc 98 7d a9 bd 35 bd 65 bd
       -0.06480822 -0.017770141 -0.08275908 -0.056088645
000180 2d 3b 6d 3c db c6 56 3d 9c dd a5 3d 2b 31 bf bd
       0.014479441 0.052435737 0.08098909 -0.0933555
000190 9a 12 72 3d e9 ba a9 bd 10 e0 1d 3d 4f ea 97 3d
       0.05909977 -0.082876034 0.03854376 0.07417738
0001a0 26 a3 88 bc d4 1d bb 3d 25 d9 aa bd 6d d0 36 bd
       -0.016679358 0.09136549 -0.08342198 -0.044632364
0001b0 de e4 a5 3d 78 38 88 bb 8f 01 06 bc 43 f6 d6 bc
       0.081002936 -0.004157122 -0.008179083 -0.026240474
0001c0 6f 3b b3 3d ca f5 80 3d 4b a0 4c 3d 85 ba 26 bd
       0.087515704 0.062968805 0.049957555 -0.040705223
0001d0 6e 13 8c bd 21 3d 0f 3d 76 0a 6c 3d 38 72 aa bc
       -0.068396434 0.034970406 0.057627164 -0.020806417
0001e0 0c 5a 70 bb 01 26 c6 3d 1a 65 17 3d bc 95 ef 3c
       -0.0036674766 0.096752174 0.036961652 0.029246204
0001f0 82 9b 4c b9 0c c3 8c bd a9 00 b5 bd 33 0b 1e bd
       -0.00019512887 -0.0687314 -0.088380165 -0.0385849
000200 ee 27 30 bd bc 28 3f 3d 14 26 6e bc 43 28 e2 bc
       -0.04300683 0.046669707 -0.014535446 -0.027607089
000210 59 49 f4 3d 8c 11 54 3d d2 9f bc 3d b6 33 76 bd
       0.119280525 0.051774547 0.09210171 -0.06010791
000220 ef d9 77 bd 8a 9f 07 3d 51 b7 a2 bd 86 08 a7 bd
       -0.060510572 0.033111133 -0.07945121 -0.081559226
000230 ee 69 ab bc 3f 51 4a bd 82 5b bf bd a0 65 3d 3d
       -0.020924535 -0.04939389 -0.093436256 0.046239495
000240 d1 82 c0 3d cb b6 ff 3b 46 ac f3 bc c4 a2 c1 bd
       0.09399951 0.007803773 -0.029745232 -0.09454873
000250 07 cc 2f bd a5 09 05 3d e8 e4 60 3d 72 6c 40 bc
       -0.042919185 0.0324799 0.054905802 -0.011744605
000260 99 e5 1f bd e9 5c 64 3d 40 64 b3 bd 3b 62 7e 3d
       -0.03903732 0.05575267 -0.087593555 0.0621054
000270 27 ea 39 bd 38 76 89 bb 43 86 ed bc 1c c3 23 3c
       -0.04538932 -0.004195001 -0.028994685 0.009995248
000280 0a c0 11 bd a5 05 88 3d af 68 af 3c e8 4c dd 3d
       -0.035583533 0.066417016 0.021412222 0.10805684
000290 d1 c9 fc 3d aa e6 df bc 68 76 60 bd 5f 84 d8 3d
       0.12343181 -0.027331669 -0.05480042 0.10572123
0002a0 3e 44 d6 3d 75 66 64 bd d1 eb 99 3c b4 3e bc bd
       0.10462235 -0.055761773 0.018789204 -0.09191647
0002b0 d5 5b 99 bd 5e 5c 93 3c 5c c0 cb 3c 30 39 0b 3d
       -0.07488219 0.01798838 0.024871998 0.033990085
0002c0 32 28 01 bd 58 b8 b4 3d 37 1e 89 3c 8d 48 87 bd
       -0.031532474 0.08824223 0.01673804 -0.06605635
0002d0 f2 58 3e bc 26 53 9c 3c b0 4c 0b 3d 18 cc 9a bd
       -0.011617886 0.019082617 0.03400868 -0.07558459
0002e0 5d 98 fb 3c 17 cf 6e bd 1e be ba bd 7c 88 84 bd
       0.0307123 -0.058302965 -0.09118293 -0.06471345
0002f0 55 a8 c7 3d 74 92 b3 3d 4c 6d af 3d f5 05 88 3d
       0.09748904 0.08768168 0.085657686 0.06641761
000300 5a 70 9b 3d 99 92 8a bc 1a 80 5b bd 48 73 2c 3d
       0.07589789 -0.016915606 -0.053588964 0.04210213
000310 f5 8e 7c bd d5 e3 89 bd 68 8d 0c bd ac 83 92 3c
       -0.061659772 -0.06732909 -0.034314543 0.017885052
000320 f0 5b 4f 3d 0c 8a 24 bd 42 25 80 bd d7 0b bf 3b
       0.050624788 -0.040170714 -0.06257106 0.005830269
000330 04 5c 7d bd 7d b2 8b bd f5 57 47 3d 1d 7a 95 bc
       -0.06185533 -0.06821153 0.048667867 -0.018246705
000340 12 39 c6 3d 23 eb cb 3d 06 73 05 3d 01 0e 16 3d
       0.09678854 0.09956958 0.032580398 0.03663445
000350 1f f6 b9 3c 96 6e de 3a 4e e4 f3 bb d8 d9 ff 3a
       0.022700367 0.0016970213 -0.0074429875 0.0019519879
000360 6d 00 20 3d e6 fc c5 3d 56 40 05 bd ac 7f 2e bd
       0.039062906 0.09667377 -0.03253206 -0.042602226
000370 e3 e2 c7 bc a4 a4 4f bd a8 41 a6 3c 36 12 a2 3d
       -0.02440018 -0.050694123 0.02029498 0.0791363
000380 8d 85 a6 3d 3f 2f 3e 3d 16 06 97 bd 64 b3 62 bd
       0.081309415 0.046431776 -0.07374208 -0.05534686
000390 5e 9d e5 bc ab 69 f4 bc a2 43 8d bb d7 59 d5 bd
       -0.02802914 -0.029835543 -0.004311041 -0.10417526
0003a0 7f 25 d1 3c e9 38 b5 bd 1a aa 7a bd 0b ee ad bd
       0.025530575 -0.088487454 -0.061197378 -0.08492669
0003b0 17 39 ba 3d 4e b9 c4 bd f2 3a b5 3d 61 41 01 3b
       0.0909292 -0.096056566 0.088491336 0.0019722807
0003c0 31 0c 63 3a 6d 4a 61 3d 87 5f c3 bb bd e5 7a 3d
       0.00086611795 0.05500262 -0.0059623155 0.06125425
0003d0 f2 98 89 3d f3 80 cb bd ef c8 20 3d d1 7f a7 3c
       0.06718625 -0.099367045 0.039254125 0.02044669
0003e0 53 49 82 3c b1 bd 5c 3c 9e dc d3 3c ab 09 84 bd
       0.015904104 0.01347296 0.025862034 -0.064471565
0003f0 5c c6 55 bc 23 6f cd 3d ab 30 94 3d 11 27 bb bb
       -0.013047781 0.10030963 0.07235845 -0.005711444

conv_block_1.2.bias f4 [10]
000000 36 06 95 3b 78 69 03 3d 81 98 bb bd bd c1 c2 bd
       0.0045478595 0.032083005 -0.09159947 -0.09509609
000010 c3 0c a6 3c 7c 9a 49 bd fd ef b3 bc 3b 46 b4 bc
       0.020269757 -0.049219593 -0.021965021 -0.022006145
000020 79 c5 6d 3b b9 41 37 3d
       0.0036281033 0.044740412

conv_block_2.0.weight f4 [10, 10, 3, 3]
000000 56 29 4c bd 3c 65 8f 3d 58 f7 93 3d 00 af bf bd
       -0.04984411 0.07001731 0.072249115 -0.093595505
000010 c7 f5 b8 bd 4e 6f bf bd 84 01 8e bd 43 65 48 bd
       -0.09031253 -0.093474016 -0.06933883 -0.048924696
000020 8a 43 44 bc 1f dd f6 bc 32 c5 6c bd 05 a6 18 bd
       -0.011978993 -0.030134736 -0.057805248 -0.037267704
000030 bd 26 2f bd 60 02 cb 3d 4e 7d 30 bd 19 61 a4 bd
       -0.042761553 0.09912562 -0.04308825 -0.080263324
000040 a2 33 21 3d ab 2d 26 bc 0a a3 7f 3d 67 97 4c 3d
       0.03935588 -0.010142724 0.062411346 0.049949076
000050 82 d7 ad 3d 95 02 bc bd 99 4e 55 3d 34 eb a0 3d
       0.084883705 -0.0918018 0.05207691 0.078573614
000060 2a 6f 82 bd 0a b2 a6 3d 99 f0 88 3d 87 e8 87 3b
       -0.06368859 0.08139427 0.06686515 0.0041475925
000070 fe 40 70 3d f5 8e 1a bd 81 81 a4 bd 1e 84 d2 3c
       0.05865573 -0.03773399 -0.080325134 0.025697764
000080 f5 b3 17 3d ea 26 86 bd 2d 4d 70 3d 59 68 a8 bd
       0.037036855 -0.06550391 0.05866735 -0.08223028
000090 c0 cc 4a 3d 59 74 75 3d df 7e 30 bc de 17 d9 bd
       0.04951167 0.05992541 -0.010772436 -0.106002554
0000a0 0c f9 1b 3c 7d f0 c3 bc 66 9c 9e bb 71 83 36 bb
       0.009519827 -0.023918385 -0.0048404215 -0.0027849341
0000b0 9e 9e 2c 3d 41 ce 6c bd ca 31 eb bc e5 fa 02 3d
       0.042143457 -0.057813887 -0.028710265 0.031977553
0000c0 ae 56 46 3c 81 1a a5 3d 61 d3 7b bd 1d ad 0e bc
       0.012105627 0.08061696 -0.061480884 -0.008708266
0000d0 ce 1f 74 3c 3f d8 df bc 81 89 92 3d 69 14 46 3c
       0.014900161 -0.027324794 0.07155133 0.012089827
0000e0 6d 42 cb bd 64 08 cf bb 66 03 35 bd 87 ea 12 3c
       -0.09924779 -0.006318139 -0.044192694 0.0089670485
0000f0 d3 8a c9 bb c3 00 c5 bd 42 1f 76 bc 31 ee 62 3c
       -0.0061505823 -0.09619286 -0.015022101 0.013850735
000100 fc a4 b7 bb 6d 91 f7 3d 9e f6 28 3b 57 af c1 3d
       -0.0056043845 0.12088285 0.002578176 0.094572715
000110 3c 69 53 3d 8d 59 84 bd fb b1 4d 3d 04 ba e6 3d
       0.05161403 -0.06462393 0.050218564 0.112659484
000120 36 0e 63 bd 56 16 51 bd db c6 e6 3d 3b ee bf 3d
       -0.055433474 -0.05104669 0.112683974 0.09371611
000130 04 8e 52 bd ea 72 a2 3d 26 19 db bb ef e0 c2 bd
       -0.051404968 0.07932074 -0.0066863475 -0.09515559
000140 9c ed 6b 3c e0 22 21 3d 76 9e ce bc a9 5e 30 3d
       0.014399912 0.0393399 -0.025222044 0.043059025
000150 cd 29 ae bd 1d 4a a2 3d 22 03 c5 3d 43 b5 7d 3d
       -0.085040666 0.07924292 0.09619738 0.061940443
000160 3d c1 b9 3c d7 c8 21 3d d3 83 a1 bd de 4e 01 bd
       0.022675151 0.039498176 -0.078864716 -0.031569354
000170 d2 31 a8 bc cf 2f 7a bd 83 65 ab bd 89 43 92 3d
       -0.020531569 -0.06108075 -0.08368971 0.071417876
000180 8f 4b 97 3d d1 08 b2 bd d6 9e 0b 3d 96 ec 72 3d
       0.073874585 -0.08693088 0.034087025 0.059307657
000190 3a 38 f0 3d d6 24 a0 3d b9 d1 df 3d 7d e2 ac bc
       0.11729474 0.07819526 0.10928673 -0.021104092
0001a0 5f 0c b4 3d b9 4b cd 3d f6 0d ac bd 0c aa 8c bd
       0.08791422 0.100242086 -0.084011 -0.06868371
0001b0 5b f2 24 3d 58 f1 98 3d d9 bd 19 bd 1f 0b 48 3b
       0.04027019 0.07467908 -0.03753457 0.0030524207
0001c0 72 54 f6 3b 17 87 32 3d dc 76 22 bd 4f 61 85 3d
       0.007517391 0.043585863 -0.039664134 0.06512701
0001d0 5f be ab 3d 69 23 a6 bd d2 07 29 3c 22 64 92 bb
       0.0838592 -0.08112223 0.010316806 -0.004467503
0001e0 27 80 11 3d 63 3d c8 3d f1 2d d2 3c 61 d2 04 bd
       0.035522606 0.097773336 0.025656672 -0.032427195
0001f0 9c 14 c8 3d 06 f9 28 bd 03 12 1e 3c cb de 58 3d
       0.09769556 -0.041253112 0.009647849 0.052946847
000200 5f 72 0d bd 69 88 25 3d 26 5b 11 bd 2a 7f 4e 3d
       -0.0345329 0.040413294 -0.035487317 0.05041424
000210 5a c5 54 3d 98 95 51 3d 07 ad 3a bd 91 1f cd bd
       0.05194602 0.051168054 -0.045575168 -0.100157864
000220 9e ea 38 3d 44 22 b9 3d 79 b9 af bd 89 43 3c 3d
       0.045145623 0.09039739 -0.08580298 0.045962844
000230 be a7 9a bd 26 be b1 3b 2d 6c db 3d ba cd ad 3d
       -0.075515255 0.005424279 0.10713992 0.08486505
000240 f7 00 98 bd 41 92 8f 3d c0 03 6b 3d 1e 0d 6d bb
       -0.07422059 0.070103176 0.057376623 -0.0036171149
000250 b0 06 cd 3d 4b 65 26 bd 72 ae f5 bc b3 dc 6a bd
       0.10011041 -0.040623944 -0.029990409 -0.05733938
000260 08 f7 30 3c f0 92 62 3c 7a fe 12 bc a6 e4 93 bd
       0.010801084 0.013828978 -0.008971805 -0.072213456
000270 ef e0 6a bd 87 7d c0 3c 28 24 df bd 71 1a c4 bc
       -0.05734342 0.023497356 -0.10895568 -0.02393839
000280 58 32 1a bc 77 45 56 bd c1 a7 27 3d 5e 5a 24 bb
       -0.009411417 -0.05231234 0.040931467 -0.0025078277
000290 e3 19 88 3d 9b 72 aa bc cd 69 ac bd 3f 4c 89 3d
       0.066455625 -0.020806601 -0.084186174 0.06703996
0002a0 36 ef f8 bb 7a b9 34 bd 4c 29 af bd 89 31 c0 3c
       -0.0075968755 -0.044122197 -0.08552799 0.02346112
0002b0 2a bd d2 bd e3 c7 d6 3c 34 72 52 3d 06 ca be bd
       -0.102899864 0.02621836 0.051378444 -0.09315877
0002c0 2d e8 91 bd 7b 6b 98 bd a5 ee b9 3d aa 87 be 3d
       -0.07124362 -0.07442375 0.09078721 0.093032196
0002d0 6c 27 ba bb 35 8f c3 3d d5 fc 0a bd 12 5f ed bd
       -0.005680969 0.09548799 -0.033932526 -0.11590399
0002e0 b5 fd e8 3c a2 34 1a 3d bd 73 b4 3d 20 36 64 bb
       0.02844129 0.03764785 0.08811138 -0.00348223
0002f0 f8 70 a4 3d 50 d0 80 3d d0 a2 99 3d 4c f8 d7 bd
       0.080293596 0.062897325 0.07501757 -0.10545406
000300 98 4c ae 3d 17 b8 ba bd 48 8d be 3d 7c a4 e2 bb
       0.08510703 -0.091171436 0.09304291 -0.0069165807
000310 64 0c c3 bd 75 50 e3 3c e8 fb 23 bd d8 2a d6 bd
       -0.09523848 0.027748326 -0.04003516 -0.104573905
000320 dc 24 30 bd 1d 3e 02 bc 52 95 8b 3d 0f 42 27 bd
       -0.0430039 -0.007949379 0.0681559 -0.040834483
000330 1b b9 39 3d 9e e1 ad bb 56 38 b3 ba aa 92 d4 3c
       0.045342546 -0.0053064367 -0.0013673406 0.025948841
000340 08 ba 75 bd ca 44 c4 bd c2 d3 d8 bc 3f c1 b3 bd
       -0.059991866 -0.09583433 -0.026468161 -0.08777093
000350 68 6a 53 bd 1f ff 00 3c c7 2d 82 bd 65 dc 03 bd
       -0.05161515 0.007873326 -0.063563876 -0.032192606
000360 f0 24 5c bd 8f 4b 3d bd 28 5d b5 bd 20 8c ef bc
       -0.053746164 -0.046214636 -0.08855659 -0.029241621
000370 38 61 3a bd 75 b3 4e 3b 40 22 dd bc 18 ac af bd
       -0.04550287 0.003154007 -0.02699387 -0.08577746
000380 85 14 88 bd 69 03 36 bc 87 b7 98 bd d2 96 01 3c
       -0.06644539 -0.0111092115 -0.0745688 0.0079094935
000390 68 a0 5e bc 87 c8 2d 3d 8c 5f 73 3c 17 9a 91 3d
       -0.0135880485 0.042427566 0.014854323 0.071094684
0003a0 18 0a c7 3b ae d9 9e bd 1d 97 44 3d 19 d1 8a bd
       0.0060742013 -0.07756363 0.047995675 -0.067781635
0003b0 98 8c 08 bc ac ee 03 bd 4b 14 1c bd a1 e4 15 bd
       -0.008334301 -0.032210037 -0.03810529 -0.03659499
0003c0 f1 e3 c4 3d ba f4 7c 3d 99 9e 03 3d 96 3b 02 3e
       0.09613789 0.061756827 0.032133672 0.12718043
0003d0 49 24 87 bd 77 f5 43 3d 7e 50 c3 3d 11 ef ca 3d
       -0.06598718 0.047841515 0.09536837 0.099088795
0003e0 43 19 5b bd 35 1d 83 3d a7 b5 03 bd 0b 6b bf 3c
       -0.05349089 0.06402055 -0.03215566 0.023366472
0003f0 4c 63 24 bc 91 92 98 bd 09 73 c0 bd e8 2c 77 bd
       -0.01003344 -0.0744983 -0.09396941 -0.06034556

conv_block_2.0.bias f4 [10]
000000 7e 23 92 3c 36 0c 07 3c ed d0 7b 3c 8c 3b 4e 3d
       0.01783919 0.008242657 0.015369636 0.050349757
000010 d5 58 74 bd 11 16 66 bd f2 ad 28 3d 19 95 59 3b
       -0.05965503 -0.056173388 0.041181512 0.0033200441
000020 80 16 59 bc f4 9f bd bd
       -0.013249993 -0.09259024

conv_block_2.2.weight f4 [10, 10, 3, 3]
000000 1c 9d 91 3d 68 8c bd bc 9d ee 1c bd 27 5f 7a bd
       0.07110044 -0.02313824 -0.038313497 -0.0611259
000010 17 42 1b bd e6 9d 05 3d 44 e7 aa bc 1a 09 92 3d
       -0.037904825 0.032621287 -0.02086223 0.07130642
000020 49 e0 d1 bc 2e 37 07 bd fa 45 4b 3d cb 9e 07 bc
       -0.025619643 -0.033011608 0.04962728 -0.008277605
000030 c0 1c 04 bd 22 13 96 3c 72 ef 7a 3d d7 ed 1e 3c
       -0.03225398 0.01831967 0.06126351 0.00970026
000040 40 af 48 3d ad 19 40 3d 2e 6c 2c 3c cf 5f 8b 3c
       0.048995256 0.046899486 0.010523839 0.017013459
000050 e8 6e 72 3c d8 9b 05 bc 7d 16 91 3d 9d a6 9f 3d
       0.01479695 -0.008154832 0.070843674 0.07795451
000060 ea a4 9b 3c f3 d8 c4 bc b5 ad 9a 3d 47 91 d4 bd
       0.018999536 -0.02402923 0.07552663 -0.10379272
000070 cf cc 62 3d 6c 0c 0a 3d d5 8a 3f 3d 5d f9 f1 bc
       0.055371102 0.033703253 0.04676326 -0.029537851
000080 de de cd bd e4 b4 5d 3d f0 b5 89 bd 56 26 c8 3b
       -0.10052274 0.05412759 -0.06724155 0.0061080856
000090 0f 9c 74 3d 33 4a bd bd 60 de 45 3c 98 ba 0c bd
       0.05971914 -0.09242668 0.012076944 -0.034357637
0000a0 7d 38 99 3d 30 73 89 bd 1f 13 83 3d bb 4f 93 3d
       0.074814774 -0.067114234 0.064001314 0.07192942
0000b0 d8 34 6e 3d 7d d5 dc 3d bd 2c 8d 3c 00 e2 b2 bd
       0.058155864 0.10782907 0.017233247 -0.08734512
0000c0 99 50 9e 3d e8 b8 8f 3b 49 f3 50 3c 8b 32 ba bd
       0.077302165 0.004386056 0.012753316 -0.090916716
0000d0 93 14 86 bc da 17 37 bd 97 63 99 3d 53 86 40 3d
       -0.016367232 -0.04470048 0.074896984 0.0470031
0000e0 23 60 4e 3d 17 62 35 3d f7 45 c1 bd 73 77 97 bd
       0.050384652 0.044283 -0.09437173 -0.0739583
0000f0 47 da 8d bd aa 01 91 bd 2c 64 5c 3d b7 83 e4 3c
       -0.06926399 -0.070803955 0.05380647 0.027894838
000100 01 1f a3 3d ad 76 29 bc b7 e2 c5 bd fe 0d 01 bd
       0.07964898 -0.010343236 -0.09662383 -0.031507485
000110 10 68 93 3d aa 1e 6f 3d 02 ba db 3c f9 d9 0c bd
       0.07197583 0.058378853 0.026822094 -0.034387562
000120 93 7e c9 bd 84 fe 67 bd fa 1b 61 3d fa 26 2e bd
       -0.09838595 -0.05663921 0.05495832 -0.04251764
000130 96 86 4e 3d 44 c6 eb 3c 06 d5 25 bd 99 7c 83 3d
       0.05042132 0.028781064 -0.040486358 0.064202495
000140 c4 bc 0a bd 60 81 65 bb 2c 76 24 bd a0 c6 cc bd
       -0.033871427 -0.003501974 -0.04015176 -0.09998822
000150 30 3b 8b 3c 54 87 f9 3c 9b 61 59 bd 05 6e 84 3d
       0.016995996 0.030460037 -0.0530716 0.06466297
000160 9a a7 c1 bd fc 19 d0 bd dd be 9e bd 9f a1 4e bd
       -0.094557956 -0.10161206 -0.07751248 -0.050447103
000170 0c 4a c2 bc 6a c2 05 bd 47 55 10 3d ff 97 d4 bd
       -0.023716949 -0.03265611 0.035237577 -0.103805535
000180 e7 4d 8f 3b cb 35 15 bc 07 03 9b 3c 69 7d f4 3d
       0.0043733004 -0.0091070635 0.018922342 0.119379826
000190 fc 51 b0 3d ff d3 0c bd 26 d1 90 bd be 76 dd bb
       0.08609387 -0.034381863 -0.07071142 -0.00675854
0001a0 f1 da b7 bc ef 12 7a 3d e8 ab d9 3c 52 00 d6 3d
       -0.022443267 0.061053213 0.02657123 0.1044928
0001b0 4a 58 cb 3c 8e 08 11 bd 74 9d 59 bc 0c 65 20 3c
       0.024822373 -0.03540855 -0.013282169 0.009789716
0001c0 cc ce e8 bc b5 9f 8e 3d f9 eb c5 bd cb d5 19 3d
       -0.028418921 0.069640554 -0.09664149 0.037557404
0001d0 f8 79 a5 bd 67 3f c6 bd 7b b6 d6 bc ef b3 40 3d
       -0.08079904 -0.09680062 -0.02621006 0.047046598
0001e0 6f e9 8f 3d b8 37 ba 3c 86 40 50 bc 89 f1 1b bc
       0.07026946 0.022731647 -0.012710696 -0.009518036
0001f0 c9 19 3b bd d8 26 4b bc fc a7 ee bb e0 be ab 3d
       -0.045678888 -0.012399398 -0.007283209 0.08386016
000200 92 39 63 3d f5 a7 b6 bd c4 50 bd bb d0 3e 8d bd
       0.055474825 -0.08918754 -0.0057774503 -0.06896746
000210 49 13 89 bc bb 92 ab bd 76 c7 ad 3c 45 a2 a3 bd
       -0.016732829 -0.08377596 0.021213274 -0.07989935
000220 85 1e d5 3d 87 a5 93 3d 5e 8e 98 bd 84 3c cb bd
       0.10406212 0.07209306 -0.074490294 -0.09923652
000230 03 56 a6 bb 63 42 ba bc e9 6a 2e 3d e0 76 99 bd
       -0.0050761714 -0.022736734 0.042582426 -0.07493377
000240 9e 03 61 3d c0 b8 a2 bd ea 05 33 bd 30 37 35 bd
       0.05493509 -0.079453945 -0.043706812 -0.044242084
000250 05 47 7f 3d 1d 86 17 3c c1 38 b8 bd c5 f4 43 bd
       0.06232359 0.009248284 -0.089952 -0.047840852
000260 4f 84 17 bd c6 ed 05 be be 8f af bc 49 1f bf 3b
       -0.036991414 -0.13078985 -0.021430846 0.005832587
000270 0e 3a 57 bd 49 52 98 bd a0 72 f2 bc cc 18 e6 bd
       -0.0525456 -0.0743757 -0.029595673 -0.112351984
000280 03 90 b9 bd a5 2e f5 bc 01 c8 bf 3d c8 c4 04 bd
       -0.09060671 -0.029929468 0.093643196 -0.032414228
000290 0e 01 56 3d fa ea 29 bd 7c dd e5 bc 07 81 cd bd
       0.0522471 -0.041483857 -0.028059714 -0.10034376
0002a0 11 da b2 3d df 34 d2 3d c0 17 11 bb 97 29 89 3d
       0.08732999 0.102639906 -0.00221394 0.06697386
0002b0 63 93 b0 3d 02 76 56 3d e2 5c 5e 3d 94 83 cd bd
       0.08621862 0.052358635 0.0542878 -0.10034862
0002c0 b8 da ca bd f8 b1 a5 bd 12 0c 07 3d c5 ba ba bd
       -0.099049985 -0.080905855 0.032970496 -0.09117655
0002d0 c2 de b2 bd 88 83 70 bd 83 74 d4 bd 68 01 de bb
       -0.08733894 -0.058719188 -0.10373785 -0.00677507
0002e0 03 62 c8 3b f4 0c 8a bd 3d 39 7e 3d ce 50 41 bd
       0.0061151995 -0.06740752 0.062066305 -0.047196202
0002f0 05 98 0f bd b9 7e e6 3d 80 01 f6 3d 71 e9 96 3c
       -0.035057086 0.11254639 0.12012005 0.01842186
000300 76 22 2e bd 89 37 c0 bc 6b 9d 37 3d b2 5f ae 3d
       -0.042513333 -0.023463981 0.04482786 0.08514346
000310 3c e4 9b 3d cc 5d bf bc e3 03 d8 bd 00 8e cd bd
       0.076118916 -0.023360156 -0.10547616 -0.1003685
000320 f2 bd 37 bd 6b d6 e2 bb ff ce 6c bd 9e 5b c3 bd
       -0.04485888 -0.0069225333 -0.057814594 -0.09538959
000330 d9 b1 84 3b 01 a4 bd bd 76 95 ba bd 15 85 a7 bd
       0.0040495214 -0.09259797 -0.09110539 -0.0817968
000340 6f 4c d3 bc 08 d5 c2 3d 06 33 36 3d 4e 27 1f bc
       -0.025793282 0.09513289 0.044482253 -0.009713961
000350 87 aa c3 3c 9a 89 30 3d 9d 9e b5 3a a1 5f a8 bd
       0.023885025 0.043099977 0.0013856475 -0.08221365
000360 68 01 85 bd 50 a8 92 bd 10 ff 11 bc e1 31 be bd
       -0.06494409 -0.07161009 -0.008910909 -0.092868574
000370 8e fe cf bc 15 51 33 bd 2e db d3 3d 91 78 af 3d
       -0.025389936 -0.043778498 0.103445396 0.08567918
000380 91 58 61 3d 72 8c 51 3c 4e 0a c8 bc 19 7b 07 3d
       0.055016104 0.012789832 -0.024418976 0.03307638
000390 55 d2 8a bd 8f 8b 09 bd 8b 9c 3b bc 62 d9 fa bc
       -0.06778399 -0.03358036 -0.011450897 -0.030621234
0003a0 7b b8 b6 bd c4 00 45 3d d0 6e cf 3d e3 cc 33 bd
       -0.089219056 0.048096433 0.10128558 -0.043896567
0003b0 da 0b 2f 3d e0 a6 01 3b 73 b1 0a 3c 82 c0 a7 3c
       0.042735912 0.0019783303 0.008465159 0.020477537
0003c0 6f 91 d2 3d 58 1e d6 3c 9b 9c 56 bd 4c 55 88 bd
       0.102816455 0.026137516 -0.052395444 -0.06656894
0003d0 80 f1 7f 3c b8 aa 54 39 6c 94 e7 bc ce c6 3c bd
       0.015621543 0.00020281493 -0.028269015 -0.046088032
0003e0 38 17 98 bd e6 30 83 bd 09 4f b0 bd 19 f4 3c bc
       -0.074263036 -0.06405811 -0.08608825 -0.011532807
0003f0 bc 82 f2 3c c1 4e a5 3d 40 14 c3 bc 70 45 f7 3b
       0.029603355 0.08071662 -0.023813367 0.0075461194

conv_block_2.2.bias f4 [10]
000000 7f 16 5c 3d aa dd b4 3d d7 5b 55 3d c1 a4 c4 bd
       0.05373239 0.088313416 0.05208954 -0.09601737
000010 18 7d 63 3b 9f 2a e9 bc e4 bd f2 bc 45 61 86 3d
       0.0034712013 -0.028462706 -0.029631563 0.065615214
000020 46 ca 19 bd 0b 9b 9a bd
       -0.03754642 -0.07549103

classifier.1.weight f4 [3, 1690]
000000 c7 ed 96 bc c9 0b 8a 3c 9f 55 2b 3b 10 e9 ca 3c
       -0.018423928 0.016851323 0.0026143563 0.024769336
000010 87 11 b1 3b 8d 2e b2 bc d0 f7 e4 3b 8e 6e ba 3c
       0.0054037008 -0.021750713 0.0069875494 0.022757795
000020 ba 8a 7f 3c 36 57 01 3c c3 4e 8f bc 7f 95 59 bc
       0.01559704 0.007894328 -0.017493611 -0.013280272
000030 56 a5 93 3c 68 8b 73 bc ae a7 d9 3b 80 68 13 bb
       0.018023174 -0.01486478 0.0066423034 -0.0022492707
000040 ee eb 0f 3c c7 03 fb 3a 87 b2 92 bc 36 ad 0d bc
       0.008784277 0.0019150906 -0.017907394 -0.008647254
000050 0c 56 b6 3c af 91 7f 3b 38 41 57 3c 5c ff 3a bc
       0.022257827 0.0038996746 0.013138108 -0.0114134215
000060 39 c1 a7 3c 10 cd 87 bb 06 47 d8 bb 1c 8d c8 3b
       0.020477878 -0.0041443184 -0.0066002635 0.006120337
000070 7f f3 00 bc 12 43 14 bc 70 10 44 bb cc a1 af 39
       -0.007870554 -0.009049194 -0.0029917024 0.0003349915
000080 22 33 3b bc 23 4d 2d 3c 91 38 b3 bc 0f c2 83 3c
       -0.011425765 0.010577473 -0.021877559 0.016083745
000090 9f 17 c2 3c 41 aa b1 3b 87 b6 94 bb 0f b5 a8 bc
       0.023692904 0.005421907 -0.0045383605 -0.020594148
0000a0 55 cf 55 3c c7 38 aa 3c e6 8e af 3c 39 da 38 3b
       0.01304992 0.020779027 0.021430444 0.0028206243
0000b0 88 90 25 3c 46 0b d6 3c 1c d0 cf 3b 94 df 1d bc
       0.01010526 0.026128422 0.0063419472 -0.009635825
0000c0 32 87 b1 bc 21 19 4c 3c 47 91 33 3c c5 a0 ba 3c
       -0.021670911 0.012457163 0.01095993 0.022781739
0000d0 b3 b4 2c bc 86 d4 4a 3c 01 a1 d4 bb 76 01 8e bb
       -0.010541129 0.012379771 -0.0064889197 -0.0043336703
0000e0 a0 33 7f 3c df d3 a3 bc 67 88 ad 3c c8 db 62 3c
       0.015576273 -0.019998489 0.021183206 0.013846345
0000f0 76 1d 51 bc f6 aa 64 3c f5 1b 88 bb bc 8e 95 3b
       -0.012763372 0.013956776 -0.0041537234 0.0045641344
000100 4c 5a 9d bb 9f 45 b6 bc cc cd 96 b9 16 73 64 3c
       -0.004802024 -0.022249995 -0.0002876356 0.013943454
000110 f4 e6 b0 ba 2c 02 28 bc 55 44 45 3b fb 43 f5 3b
       -0.0013496564 -0.010254424 0.0030100544 0.0074849105
000120 ea 09 86 bb 21 50 8d bc c7 f0 3c bc 58 f3 eb ba
       -0.0040905373 -0.017250123 -0.011532015 -0.0018001599
000130 6a dd 36 3c e7 f7 c2 3c 7c eb 03 3b d9 0a 2e 3c
       0.011161188 0.02379985 0.0020129373 0.0106227035
000140 b7 8e 84 3c 7b 38 0c bc 13 58 e6 bb 0e 63 93 3c
       0.016181333 -0.008558388 -0.0070295422 0.017991569
000150 c2 8f a8 3c 0c 72 0e 3c 5b c7 89 bc bd 61 80 3c
       0.020576362 0.008694183 -0.016818693 0.015671605
000160 8f c3 8f bc 89 d5 70 3c c2 ca a4 3b b2 3f 17 3c
       -0.017549304 0.014699348 0.0050290534 0.009231495
000170 55 74 af bc 9e a3 cb bb 24 9e 4e 3c f0 c2 a7 3c
       -0.021417776 -0.006214573 0.012610946 0.020478696
000180 a9 32 9a bb 39 04 ca 3c 3a 6b da ba 5a cb 41 bc
       -0.004705746 0.024660217 -0.0016664036 -0.011828268
000190 17 7a fb bb 15 7e 8c 3b 52 c8 c0 ba cb 49 67 3c
       -0.0076744664 0.004287491 -0.0014708138 0.014116715
0001a0 21 ba 48 bc 55 69 98 bb a1 3a ab bc 46 45 bd 3c
       -0.012251408 -0.0046512284 -0.02090198 0.023104321
0001b0 d7 6e 05 bb 84 e9 84 bc cf 28 2c 3b 4b 79 82 3b
       -0.0020360255 -0.01622463 0.002626944 0.0039817444
0001c0 4f fe 2f 3c 0c b6 2a 3a 2f 49 96 3c e7 f8 b3 bb
       0.010741784 0.00065121124 0.018345444 -0.005492318
0001d0 3b 1e a5 bb f8 45 96 bb 18 cd ca 3b 7c e5 b6 3c
       -0.005039004 -0.0045859776 0.006189 0.022326224
0001e0 a5 7f e5 3a fd ca ae 3c 8b 56 b3 3c 0b 7c 16 bc
       0.0017509355 0.021337027 0.021891853 -0.009184848
0001f0 35 96 f5 3a 14 5f f9 bb 30 82 5f 3c 5f 92 a5 bb
       0.0018736782 -0.007610211 0.013641879 -0.005052849
000200 12 0e 24 3c 9a 57 54 3b 11 c6 78 bc 46 f4 77 bc
       0.01001312 0.0032400847 -0.015183941 -0.015133923
000210 e4 cd b0 bc a1 23 36 bc e3 d2 1b 3c 0f ed 8a 3b
       -0.021582551 -0.011116893 0.0095107285 0.0042396854
000220 96 ba ae 3c 03 ac 90 bc 78 6e 57 3b f8 d9 94 bc
       0.021329205 -0.017660147 0.003287224 -0.018170342
000230 a4 40 4d 3b 99 8d 36 3c 15 5d a7 bc 61 47 ae 3c
       0.0031319046 0.011142158 -0.020430127 0.02127427
000240 a8 81 f9 bb 5b b4 b5 3c e4 3c 1a bb f9 19 82 3c
       -0.007614333 0.022180727 -0.0023534829 0.015881525
000250 44 a2 c9 3c 36 5d c6 bb 66 69 0c bb 86 9c 87 3c
       0.024613507 -0.006053592 -0.0021425127 0.016554128
000260 f6 6f 8f bc 1c 26 8c 3c 86 71 68 bc 71 f9 be 3c
       -0.017509442 0.017108016 -0.014187222 0.023312302
000270 1a 6f 8b bc 3a 14 2f bc c0 9e 8f 3c 73 41 27 bc
       -0.01702075 -0.010685975 0.017531753 -0.010208475
000280 ab 3b b5 3c e4 cd 94 3c 4d eb c6 3c 21 b7 ab bc
       0.022123178 0.018164583 0.024282122 -0.020961346
000290 be a8 2f 3b ad ca b8 bb 4d 87 f7 3b 74 9f 8e bc
       0.002680346 -0.005639395 0.007553971 -0.017410018
0002a0 b0 97 24 3c c6 3d 21 bc b8 bb c1 bc aa 6b 1c bd
       0.010045931 -0.009841388 -0.023649082 -0.038188614
0002b0 9a 43 92 3b 17 63 87 bc 22 5c 01 3c 61 99 dd bb
       0.004463625 -0.016526742 0.007895501 -0.006762669
0002c0 dc 42 dc 3a 42 93 fa bb 92 15 18 bc c9 9d a0 bc
       0.0016804594 -0.007646949 -0.0092824865 -0.019606488
0002d0 cb 66 01 bd 01 db 08 3c de 1d d5 bc f7 cd 24 bb
       -0.03159217 0.008352996 -0.026015218 -0.0025147179
0002e0 bc 56 c1 bc 2a c8 da 3b 06 33 57 3c 52 3f da bc
       -0.023600928 0.0066766934 0.0131347235 -0.026641522
0002f0 0e 2a b1 3b f1 b4 81 bc b6 38 d7 bc f1 bb 91 3b
       0.0054066246 -0.01583335 -0.02627216 0.004447453
000300 79 69 27 3c f8 47 68 3c 44 1e eb bc ee 39 81 3b
       0.010218018 0.014177315 -0.028700955 0.0039436733
000310 37 3a 7b 3b 90 2e 4e 3c 75 ba eb 3a 3c df cd bc
       0.003833426 0.012584344 0.0017984646 -0.02513086
000320 00 fd 42 ba a8 f4 db 3a 53 8a 01 bd 3c 57 d9 bc
       -0.00074382126 0.0016781287 -0.031626057 -0.026530854
000330 c5 33 11 3c f4 ae 30 3c 10 94 4e 3c 9a 6b 71 3c
       0.0088624405 0.0107839 0.012608543 0.014735127
000340 8c 33 07 bd a6 ce 8f bc 8a 20 aa bc f7 d8 00 3b
       -0.033008143 -0.017554592 -0.020767469 0.001966057
000350 90 6a 65 bc 87 a2 49 bd 3f e1 09 bd 57 67 44 bd
       -0.014002457 -0.049227264 -0.033662077 -0.047950115
000360 d9 c7 35 bd 53 7f 5e 3b 02 39 c9 bc de 3f bb 3a
       -0.044380043 0.0033950403 -0.024563316 0.0014286002
000370 08 4a 31 bc 17 00 da bc b5 6a a0 bc af 11 38 3b
       -0.010820873 -0.026611371 -0.019582132 0.0028086712
000380 bb 86 8f bc 1f 0b b2 39 f2 13 8d bc 6d c3 68 bc
       -0.0175203 0.00033959092 -0.017221425 -0.014206749
000390 dc e8 30 bd 81 c5 ea bc c7 0a 14 bd 42 78 dc bc
       -0.043190822 -0.02865863 -0.03614309 -0.026912812
0003a0 2a 6e 92 bc 95 e6 a7 bb 93 ab 8c 3b 59 60 39 bc
       -0.017874796 -0.005123923 0.004292914 -0.011314475
0003b0 1a 22 16 bd bf 32 fd bc 08 13 30 3a 25 bd a0 bc
       -0.036653616 -0.030907987 0.0006716703 -0.019621441
0003c0 b4 1b 59 bc 76 19 d8 bc de 1e 5b bc 32 2c 17 bc
       -0.013251234 -0.026379328 -0.0133740585 -0.009226846
0003d0 e0 58 15 bd ed 5d 7a bb ea 33 95 ba 9e 9e eb bc
       -0.03646171 -0.0038202957 -0.001138327 -0.028762158
0003e0 57 31 ee bc a7 d5 cf bc fc dd 13 bc db 77 b3 bc
       -0.029076261 -0.025370432 -0.009025093 -0.021907737
0003f0 f8 af 56 3b 19 94 34 bd a1 79 f4 bc 5a 13 ee bc
       0.0032758694 -0.04408655 -0.029843153 -0.029061962

classifier.1.bias f4 [3]
000000 21 cf 42 3c 8d ca 54 bc cd 56 a8 bc
       0.011890204 -0.012987745 -0.020549202
