03_pytorch_computer_vision/models/03_pytorch_computer_vision_model_2.pth (torch, 35147 bytes, 10 tensors)

block_1.0.weight f4 [10, 1, 3, 3]
000000 ec 3b 64 3e 7f 20 8b 3e c8 82 de be c5 7a 4d 3e
       0.22288483 0.2717323 -0.43459153 0.20066364
000010 39 35 32 3e 97 b7 98 3d c1 8f a6 be 16 40 51 3d
       0.17403115 0.07456892 -0.3253155 0.051086508
000020 5f 2d be 3e 4b 50 bd be e8 cd ec 3e ed 84 27 be
       0.3714399 -0.3697532 0.46250844 -0.16359301
000030 b5 4a 61 3e 0d b4 d9 3e 2a 6b c9 3d ad 33 0c be
       0.22001155 0.4252018 0.09834893 -0.13691588
000040 22 30 67 3e e4 ef b9 3d ad c7 f2 be 84 f3 23 be
       0.22576955 0.09078959 -0.47417966 -0.16010863
000050 99 96 cc bc e5 d8 24 bf 43 20 2e bf a9 9c ac 3d
       -0.024974154 -0.64393455 -0.6801798 0.08428318
000060 a7 27 42 bf 0b 9e 28 bf bb 0b 9a bd c9 e9 25 bf
       -0.75841755 -0.65866154 -0.07521769 -0.6480985
000070 4d f4 4f bf cb d7 11 bf 8d c8 8a 3e f5 43 f8 be
       -0.8123215 -0.569699 0.27106133 -0.48489347
000080 33 06 94 3e 5d 79 b2 3e 0a 3c 55 3d 10 39 f9 3e
       0.2891098 0.34858218 0.05205921 0.48676348
000090 58 96 04 be 34 ca ec 3e 75 48 b6 bd c6 39 b2 be
       -0.12947977 0.4624802 -0.08900539 -0.34809703
0000a0 96 22 ec 3e 64 77 80 be d7 c1 b1 bd 02 85 b5 3e
       0.46120137 -0.25091088 -0.0867955 0.3545304
0000b0 23 e1 18 3d 93 91 17 be 45 a7 3a 3e 76 2a 5d 3d
       0.037324082 -0.14801626 0.18227871 0.053995572
0000c0 1e 26 27 3e 1a d3 51 be 78 46 a9 be d7 9e 04 be
       0.16323134 -0.20490685 -0.33061576 -0.12951218
0000d0 0c 34 84 be ec 61 85 3e 12 b8 3f 3e e0 96 62 3e
       -0.2582096 0.2605127 0.18722561 0.22127867
0000e0 e6 77 56 3c 09 d7 bb 3c 5d 3f 2b 3e bc 15 72 be
       0.013090109 0.022929685 0.1672339 -0.23641104
0000f0 c6 22 30 bd 7d 87 e0 be 2d ff 21 bd 1d 9b 2b be
       -0.043001913 -0.4385337 -0.039549995 -0.1675839
000100 46 e9 91 3d c0 7a 04 be b5 e8 90 3e 90 12 46 be
       0.071245715 -0.1293745 0.2830254 -0.19343019
000110 3b c5 6f be 7d 16 41 be a9 7b d9 3e f9 90 2f 3e
       -0.23415081 -0.18856235 0.42477158 0.17145146
000120 fc ef d8 3e 2b 2c b5 be 95 65 bf be 61 83 80 be
       0.42370594 -0.3538526 -0.37382188 -0.25100234
000130 01 1a 8c be 28 95 2d 3e 0a bb a6 3e 91 7d d2 3e
       -0.2736359 0.1695143 0.32564574 0.41111425
000140 ee 76 2a be 84 84 68 be 70 d1 33 3e 2e 11 0a be
       -0.1664693 -0.227068 0.17560363 -0.13483116
000150 a7 45 4e 3e 86 1c a5 bd ca 0b 41 3e f1 9a 84 be
       0.20143758 -0.08062081 0.18852153 -0.2589946
000160 81 60 2c be 0b c8 cc 3d
       -0.16833688 0.09999093

block_1.0.bias f4 [10]
000000 6b 5b ae 3c b0 c3 95 3d 1f db 7d 3e 7a 44 f0 3d
       0.021283826 0.07312715 0.2479062 0.11731811
000010 76 21 ad b8 80 cb 4d be ea 8e 18 3e 19 10 99 bd
       -8.2555154e-05 -0.2009716 0.14898267 -0.074737735
000020 b6 b7 8e bd 95 60 a6 be
       -0.06968634 -0.3249556

block_1.2.weight f4 [10, 10, 3, 3]
000000 a9 7e ca 3d b7 c7 01 3c a6 67 8c bd b3 7d f2 bd
       0.0988744 0.007921151 -0.06855707 -0.118403815
000010 e1 00 1f be 1a 2d 4e be 37 30 0d be b5 1e 42 be
       -0.15527679 -0.20134392 -0.13787924 -0.18957026
000020 8b 14 2a be ef ef 79 bd bb 10 2b bc 84 41 db bd
       -0.16609399 -0.061019834 -0.010441001 -0.107058555
000030 22 90 33 be 71 2c 9f be 8c 2d 97 be 15 66 0a be
       -0.17535451 -0.31088594 -0.29526937 -0.13515504
000040 48 24 3f be 10 36 6e be 37 3a 30 bd f9 e5 7d bb
       -0.18666184 -0.2326281 -0.043024268 -0.003874181
000050 11 29 71 3d 21 a1 c2 3d ec a2 93 3e fb 00 33 3e
       0.058877055 0.09503389 0.28835237 0.17480843
000060 c3 3d 8f bd 27 f1 61 3d 66 0d b0 3d 8f bd 1f be
       -0.06994202 0.05516162 0.085963055 -0.15599655
000070 31 ea a4 bb 0a ca 1d be 48 9d 8f bc 50 7c 87 bd
       -0.0050328006 -0.15409103 -0.017531052 -0.066155076
000080 83 91 da bd 36 74 57 3e 88 fc 61 3c 79 e8 9e 3d
       -0.106722854 0.21040425 0.013793118 0.077591844
000090 5b 57 f4 bd 70 9b 17 be d2 f5 19 bd cc 6e 94 bd
       -0.11930724 -0.14805388 -0.03758795 -0.07247695
0000a0 1d a3 75 bc 75 c3 1f be 4a 7f e1 3d 45 90 99 bd
       -0.0149925025 -0.15601905 0.110106066 -0.0749822
0000b0 34 79 2a bd f7 cd b8 3c 75 b2 5f 3d a3 d6 ad 3d
       -0.041619495 0.02255915 0.05461355 0.08488204
0000c0 11 f7 c4 3d c0 59 ab bd eb 0a ee 3c 4f 1c 38 bd
       0.09617437 -0.08366728 0.02905794 -0.044948872
0000d0 53 f2 4e bc d6 97 9f bd 2a 5d 39 3e 38 46 55 bd
       -0.012631017 -0.07792632 0.18101946 -0.05206892
0000e0 33 38 78 bc 25 d9 1d 3e 93 0e b1 3d b0 17 47 bd
       -0.015150118 0.15414865 0.08645358 -0.048606575
0000f0 c3 b1 8b 3d 51 36 4c bc 42 6d 94 bd 87 9d b1 bd
       0.06821015 -0.012464122 -0.07247402 -0.08672624
000100 50 b2 3f 3d 27 cf 6e bc 10 65 41 bd 48 f5 b8 3d
       0.04680091 -0.014575756 -0.04721552 0.09031159
000110 d5 20 93 3c 73 22 01 bd 27 2e 7c bd ed cc 39 bc
       0.017959991 -0.031526994 -0.06156745 -0.011340362
000120 52 2d 79 3d 70 f3 6e bb 3f 0d 47 bd 36 61 84 bd
       0.060834236 -0.0036461018 -0.048596617 -0.06463854
000130 f6 81 94 bd 0f 64 51 3d 26 07 16 3e f3 49 73 bd
       -0.072513506 0.051120814 0.14651164 -0.059396695
000140 3c 34 2a 3c c6 05 5f 3d 54 a6 9c 3c 89 c5 19 bd
       0.01038843 0.054448865 0.01912228 -0.0375419
000150 ee 57 61 3d c6 e4 62 3d a9 74 21 3d d8 bc 97 bc
       0.055015497 0.055393957 0.039417896 -0.018522665
000160 58 a4 e4 bc 8a a3 38 3c 3e c5 dd bc 72 94 f7 bc
       -0.027910396 0.0112694595 -0.027071591 -0.030222151
000170 a3 d7 98 3d 5a e6 a3 3d 5f 29 14 bc 56 91 72 bb
       0.074630044 0.080029204 -0.009043067 -0.0037012897
000180 5b b4 b5 bc 1e ce 10 bc 81 11 ea 3c ee f3 b0 3c
       -0.022180727 -0.008838205 0.0285728 0.02160069
000190 18 44 ae bd 2a 30 a5 bc 16 fd a8 3d 7c 7f 66 3d
       -0.085090816 -0.020164568 0.08251397 0.056273922
0001a0 6a fc 80 3c c4 71 bb bd 5d 90 8b bd 2a f8 b7 bd
       0.01574536 -0.091525584 -0.068146445 -0.089828804
0001b0 4c b3 0b bd f0 d6 0e 3d d4 f9 83 3d 10 21 47 3d
       -0.034106538 0.03487295 0.06444135 0.048615515
0001c0 13 7d c1 bd fb 6d 86 bd a4 52 90 bc c1 cb d0 3d
       -0.09447684 -0.06563946 -0.017617531 0.10195113
0001d0 77 97 33 3c fc d3 1b bc aa d7 53 3d b6 09 1f bd
       0.010961405 -0.00951099 0.051719345 -0.03882762
0001e0 51 28 88 bd ca 3f 8e 3d bc 46 58 bd 02 d8 be bc
       -0.06648315 0.069457605 -0.052801833 -0.02329636
0001f0 40 f1 dc bd 92 e7 85 3d f1 81 92 3d fa 1f 24 3d
       -0.10788202 0.06538309 0.071536906 0.040069558
000200 15 db 8a bd a0 ea fc bd 57 68 b5 bd 00 f1 ac 3d
       -0.06780068 -0.12349439 -0.08857792 0.084444046
000210 27 61 1e 3d 8d 83 ba 3d 16 15 74 3d 5d a8 da 3c
       0.03866687 0.091071226 0.05959042 0.02669161
000220 9b e7 71 ba 05 29 a4 bd bf ea b8 bd de e2 c9 bd
       -0.00092279323 -0.08015636 -0.09029149 -0.098577246
000230 7c 55 31 3d df 04 54 bd 71 a0 ad bc c0 42 78 bd
       0.043294415 -0.051762458 -0.021194668 -0.060610533
000240 b6 5e bd bc a4 13 a4 bd bd ca 91 bd 48 de 0a 3d
       -0.02311645 -0.08011559 -0.071187474 0.03390339
000250 47 79 ed bc 63 d8 95 3d 6a 11 14 bd 6d 5f af bd
       -0.028988494 0.07316663 -0.03614942 -0.08563123
000260 bf a1 cb bc 65 90 51 bd 95 d8 05 bd fd 05 ce bd
       -0.0248574 -0.051163096 -0.03267725 -0.10059736
000270 ad d6 6e 3d 19 5d 99 bd a5 8b 58 3d 32 95 3f 3d
       0.0583102 -0.0748846 0.05286755 0.046773143
000280 14 98 9c 3d 18 11 a4 bd 10 a5 9c 3d 20 17 3d bd
       0.07646194 -0.08011073 0.07648671 -0.04616463
000290 30 a8 24 3d dd ce c0 3d a1 44 93 bc 3f 53 90 ba
       0.04019946 0.09414456 -0.01797706 -0.0011011137
0002a0 82 cc d9 bc 9d 9a bf bd d7 9b 5f 3d 7e 4e d6 bd
       -0.026586775 -0.09355662 0.05459198 -0.1046419
0002b0 c8 09 86 3d 45 85 a1 3d 2c 25 cc 3d eb 83 cb bc
       0.065448344 0.07886747 0.099680275 -0.024843177
0002c0 fe 5b b1 bd ca 24 c2 3c 92 83 6e 3d 8e dd d6 bd
       -0.08660124 0.023699183 0.058230944 -0.10491477
0002d0 28 2f c0 bc e3 be 83 bd 39 2b 24 bc 36 fa 4d bd
       -0.023459986 -0.06432893 -0.010020071 -0.050287448
0002e0 07 7a 31 bd f2 ed 06 bd ab 64 bd bd 19 91 bc 3d
       -0.043329265 -0.032941766 -0.092477165 0.09207363
0002f0 32 fd b1 3d 6b d9 89 bc db ee 51 bc d0 77 2e bd
       0.08690871 -0.016827306 -0.012813295 -0.04259473
000300 57 11 c1 bd 12 b2 cd bd 73 86 1f 3d 83 d8 51 bd
       -0.094271354 -0.1004373 0.03894658 -0.051231872
000310 e1 53 6f bd ca 7c c8 bb 08 2f 2f bd ab 83 3d bd
       -0.058429603 -0.0061183916 -0.042769462 -0.046268146
000320 1b 9c 08 bc c9 e2 c4 bc a2 8f 1c bd 1b db 5e bd
       -0.008338 -0.02403392 -0.038222916 -0.054408174
000330 69 01 b3 bd 65 c7 b1 3d a4 5a 2d bd 28 3a 9f 3c
       -0.08740503 0.086806096 -0.04232277 0.01943691
000340 24 1e 2c bd 2b 01 80 3b 0a a0 cd 3d 68 16 42 3d
       -0.04202093 0.003906389 0.10040291 0.04738465
000350 2d eb ba bd 58 10 3f 3d 2b a5 c7 3d e1 25 02 3d
       -0.091268875 0.046646446 0.097483 0.031774405
000360 dc 2a 8e 3d ff db d2 3d a0 25 8b bc 21 f3 c2 3c
       0.069417685 0.10295867 -0.016985714 0.023797574
000370 b3 d1 90 bd 0b e9 b8 bc d1 c7 9b 3d 77 40 71 3d
       -0.07071247 -0.022572061 0.07606471 0.05889937
000380 06 29 8d bd 0a 1c ad bd 47 85 93 bd 96 11 d5 bd
       -0.0689259 -0.08452614 -0.07203155 -0.10403745
000390 b5 91 a6 bd 8f 60 d5 bc 52 fa 91 3d 3b 2a 91 3c
       -0.0813326 -0.02604702 0.07127823 0.017720332
0003a0 9b 00 a4 bd 9e 2e ad bd 75 c3 3c 3d d2 66 af bd
       -0.08007928 -0.08456157 0.04608484 -0.08564533
0003b0 13 3a a8 bc 0f 80 4c 3d c0 bf 4b bd 03 d1 3b bc
       -0.020535504 0.049926814 -0.049743414 -0.0114634065
0003c0 c2 16 27 bc 69 7d d2 bc b8 26 5b bd 0d 66 c0 bd
       -0.010198297 -0.025694566 -0.053503722 -0.09394465
0003d0 cb 74 ae bd 40 34 67 bd 36 5f d1 3d e8 92 51 bd
       -0.0851837 -0.056446314 0.10223238 -0.05116549
0003e0 e2 92 93 bd 07 df db 3c db ea 05 3d 0c b5 6d 3d
       -0.0720575 0.026839746 0.03269468 0.058033988
0003f0 73 6d 9f 3d 89 42 70 3d 0b 17 d6 bd 2e cd 42 3c
       0.07784548 0.058657203 -0.10453614 0.011889739

block_1.2.bias f4 [10]
000000 80 44 e0 3e 72 7f 1a bd 99 44 7b bd 3b f6 f3 3e
       0.4380226 -0.037719198 -0.061344717 0.47648796
000010 66 a1 bf bd e3 8f 76 3c 7e 72 f2 3d 5a c8 7f 3d
       -0.09356956 0.015048954 0.11838244 0.06244693
000020 f1 ba 53 3e 89 59 4b 3d
       0.20676781 0.049645934

blcok_2.0.weight f4 [10, 10, 3, 3]
000000 b5 30 12 bd 56 7e 55 be 7f 51 9e bd f3 68 9c bc
       -0.035690982 -0.20848975 -0.07730388 -0.019093012
000010 a7 27 d0 bb 9b 6d 12 3d e7 0b 35 bd 4b 01 e2 3d
       -0.006352383 0.03574906 -0.044200804 0.11035403
000020 ae 88 30 3d 7a de 70 3d e7 4a c8 bd a6 96 26 bd
       0.043099098 0.05880592 -0.097799115 -0.040671013
000030 a2 fc b8 bd 1f 78 87 bd 08 9b 71 3d fc 4a 58 bc
       -0.09032561 -0.06614708 0.05898574 -0.013201471
000040 4a 57 3a 3d fc 0c 7c bd 5c 25 73 3c 7a ae 7e bd
       0.0454934 -0.06153582 0.01484045 -0.062178113
000050 1b b5 5b 3d 2b 8e 33 bd ac f5 c9 bc d3 54 bb bd
       0.053639513 -0.043836754 -0.024653278 -0.09147038
000060 2e 6d 53 3a da f8 cd 3d f7 24 54 3d be 76 16 be
       0.000806528 0.1005723 0.051793065 -0.14693734
000070 88 59 75 3e c2 1d 22 3d 75 f6 2c be a9 af 22 3e
       0.23959935 0.03957916 -0.16890891 0.15887322
000080 5a 79 0d 3c f0 8b b5 bd 22 b1 87 be 60 23 1b bd
       0.0086348895 -0.088645816 -0.2650233 -0.037875533
000090 51 35 f4 3c 33 48 18 3d 6b 34 83 3c 42 29 47 3d
       0.02981058 0.03717823 0.016016206 0.04862333
0000a0 79 0e d6 3d 75 b3 ed bb 63 a6 e9 3c 00 24 31 bd
       0.10451979 -0.007254059 0.028521722 -0.043247223
0000b0 75 72 f9 3d c2 6f fa bc 6c 80 02 bd 7d cb c1 bc
       0.12180034 -0.030570868 -0.031860754 -0.023656601
0000c0 0d e3 1e bd 57 3c 43 bd 41 46 0b be 46 e9 52 3c
       -0.03879075 -0.047664966 -0.13601018 0.0128729995
0000d0 01 f8 75 3d b2 e4 aa 3d 59 af 8a 3c 16 fd 1b 3e
       0.060050968 0.083444014 0.016929315 0.15233263
0000e0 ef 05 d2 bd a6 05 ae 3e 03 ac 53 3d e5 2c 9e 3d
       -0.10255038 0.33988684 0.051677715 0.07723407
0000f0 f4 ea f5 3e 77 d1 1a be f3 8f 91 bd 77 ab 77 3c
       0.48030818 -0.15118967 -0.07107534 0.015116564
000100 f4 b5 27 3e 6c d4 36 3d 78 2e 72 bd 55 12 1b 3e
       0.16378003 0.044636175 -0.059126347 0.15143712
000110 fe c7 a9 bd 24 18 22 bd 0f bb 7c bd b4 f8 93 bc
       -0.082900986 -0.039573804 -0.06170183 -0.018062927
000120 70 36 51 be c7 36 92 3d c2 0e 25 3d c9 05 c9 3c
       -0.20430923 0.07139354 0.040297277 0.024538891
000130 e6 db 01 3e bf ba 86 3d b2 c2 85 bb 1c b1 61 be
       0.12681541 0.06578588 -0.0040820474 -0.22040218
000140 d3 75 2e 3d 99 b2 81 3e 5d 7a 95 3d 71 f1 a4 bc
       0.042592835 0.25331572 0.072987296 -0.02013466
000150 0d 73 96 3d c5 0a 50 3e b4 2b 18 bd 91 4b 9c bd
       0.07346163 0.20316608 -0.037151054 -0.07631601
000160 e9 94 52 3e c5 48 1d 3e 85 17 c7 bd e7 6a 75 be
       0.20564617 0.1535979 -0.09721283 -0.23966561
000170 e3 b6 21 bd 20 ed a9 3d 25 ea ce be 21 19 ec bc
       -0.039481055 0.08297181 -0.40413013 -0.028820576
000180 19 84 dc 3d 92 3f 08 3d 55 2f 2a 3c 31 97 37 3d
       0.10767383 0.03326375 0.010387261 0.04482192
000190 92 88 2a bd cf de d1 bd be 1d 52 bd dd 22 b5 3d
       -0.04163415 -0.102475755 -0.051297896 0.0884454
0001a0 fa 3b c4 bc 48 ef c9 3c f0 27 3d bd 0d fb 94 3d
       -0.02395438 0.024650231 -0.046180665 0.07274447
0001b0 c8 fa 7f 3d e8 1b 24 3d 35 fe 4c bd c3 e3 af bd
       0.062495023 0.040065676 -0.05004712 -0.08588364
0001c0 b0 b6 8a 3b b8 e1 80 bd cf d9 b0 3d ba 05 d1 bd
       0.004233204 -0.062930524 0.08635294 -0.102061704
0001d0 4d d6 3c 3d 63 fd 36 be 6c 9e a4 3e d3 3e a7 3e
       0.04610281 -0.17870097 0.32152116 0.3266512
0001e0 74 ff 67 be 52 5a 5a 3f c7 ec 7c 3e 35 e1 70 bf
       -0.22656041 0.8529407 0.24699698 -0.9409364
0001f0 da ba 1d bd e8 29 73 3d da 16 80 bb eb c1 91 3d
       -0.038508274 0.059366137 -0.003908974 0.07117065
000200 54 e1 3b bd ea b4 e6 bd 4d c8 1e be a2 da ad bd
       -0.045869187 -0.11264975 -0.15506096 -0.084889665
000210 ce 76 c7 3d 38 c9 3d be c2 dc 40 be 37 f0 cf bc
       0.09739457 -0.1853379 -0.18834212 -0.025383098
000220 5f f9 ce be c6 2a 30 bd 4b 92 81 3e 0f 04 0c 3e
       -0.4042463 -0.043009542 0.25306925 0.13673423
000230 e5 74 88 bd 1a 6a 42 3d 3b cd 81 3e 73 92 af 3d
       -0.06662921 0.047464468 0.2535189 0.08572855
000240 e4 83 0a bf df 3c 35 bd dc fd 4a 3d 26 9d 16 bf
       -0.541075 -0.044247504 0.049558505 -0.5883354
000250 1e 7d 7d 3e 59 74 99 3e c7 4e b2 be b4 a7 e9 bd
       0.2475476 0.2997158 -0.34825727 -0.1140894
000260 ef d9 bf bd d6 d8 92 bd 60 46 cb bd 51 64 97 3e
       -0.093677394 -0.071702644 -0.09925532 0.29568723
000270 21 d4 4d be f6 ea 9d 3e 8a 58 1b 3d 97 00 dc be
       -0.20100452 0.30843323 0.037926234 -0.429692
000280 a8 74 3d bd ec 30 ad bd be 3e c5 be a0 18 e4 3d
       -0.04625383 -0.08456597 -0.3852443 0.11137509
000290 c9 fb d2 3e 27 73 6c be 86 38 ae 3e b9 16 b7 3e
       0.41207722 -0.23090802 0.340275 0.35759524
0002a0 d0 4b 9c be c1 2c 05 be c0 d9 5f bd a3 66 64 3e
       -0.3052659 -0.13005354 -0.054651022 0.22304778
0002b0 8c 6f af bd 0b 5b 1f be 4c 76 41 3e 8e 92 f4 bc
       -0.08566198 -0.15562074 0.18892783 -0.029855039
0002c0 0a 75 83 be fc f4 49 be 68 8e f4 3c ea 91 f7 3d
       -0.2567523 -0.1972236 0.02985306 0.12088378
0002d0 69 35 5b bd d3 5f 98 3d e3 c6 92 3d cc c8 c5 bd
       -0.053517733 0.07440152 0.07166841 -0.096574396
0002e0 63 bc df bd 95 db d1 bd 3a f2 9c bd 80 7f 65 bd
       -0.10924604 -0.1024696 -0.076633886 -0.056029797
0002f0 ff 8c 9e bc 4b 7a d2 bc 25 2a 5b bd 62 61 0a bd
       -0.019354342 -0.02569308 -0.05350699 -0.033784278
000300 ee 5c 1b bd 5a 9b d3 3d 27 5b 1f bd 3c 8d 9a bd
       -0.03793042 0.10332365 -0.03890529 -0.075464696
000310 0f 72 33 3d 2f 46 c8 bb 89 52 a5 3d 5e ec 86 3d
       0.043809947 -0.006111882 0.08072383 0.06588052
000320 92 76 c6 3d 2f 1b 9e bd c0 c8 8a 3d 7e 1f b5 3d
       0.09690584 -0.077200286 0.06776571 0.08843897
000330 bc 35 55 bd be 74 c6 3d 1b d4 a1 3d 06 06 cd bc
       -0.0520532 0.096902356 0.07901784 -0.025027286
000340 35 58 40 3d 51 69 89 bd 8a 30 f2 bd 83 b6 1e 3d
       0.04695912 -0.06709541 -0.11825664 0.038748275
000350 de 7f 99 3c 13 dc b5 bd ad 8f e9 3c 9c 3f 03 be
       0.01873773 -0.088798665 0.028510893 -0.12817234
000360 1e 36 a7 3d 9c 45 cb 3d 34 ce c0 3b 13 01 8c bd
       0.08164619 0.09925386 0.0058839563 -0.068361424
000370 44 a0 80 3d 34 5d 24 3c e0 c2 6e 3c c5 53 d8 3c
       0.06280568 0.010031987 0.014572829 0.026407132
000380 12 b0 80 3d d5 88 42 bd 7c d1 1e bd 13 a9 70 3c
       0.06283583 -0.047493774 -0.038774 0.014688748
000390 20 3f 29 bb c0 8e b3 3d e1 9e 63 bd a9 fc ac bb
       -0.002582498 0.08767462 -0.05557144 -0.005279143
0003a0 29 57 7a 3c 47 df 07 bd 53 70 3e 3d 35 e7 0a 3c
       0.01527957 -0.03317192 0.04649384 0.008477976
0003b0 9d 7a e6 bd f6 78 d9 bc 10 29 4e bd 16 00 81 3c
       -0.112538554 -0.026546936 -0.05033213 0.015747111
0003c0 f3 1f eb bc 50 46 ec bd 2d 23 af bc c8 45 17 bd
       -0.028701758 -0.115368485 -0.021379078 -0.036931783
0003d0 75 4b eb bc 9f 96 a2 3d a9 43 08 bd 84 7e ae 3d
       -0.028722504 0.07938885 -0.03326765 0.08520225
0003e0 05 49 c8 3c a1 f7 c8 bd c1 a4 a9 3c 0f e5 9e 3d
       0.02444888 -0.098128565 0.020708444 0.07758533
0003f0 6d 8c ce bd fc 7f 8d bd 3d ee 9a 3d a0 b1 8f 3d
       -0.10085378 -0.06909177 0.075649716 0.07016301

blcok_2.0.bias f4 [10]
000000 db 54 32 be c7 78 73 3e 6f 8f 1f bd 08 76 2c be
       -0.17415182 0.23776542 -0.03895515 -0.168419
000010 3b 45 44 be cb 8d b9 3c 44 64 5c 3e ec 3f 03 3f
       -0.19167034 0.02265062 0.21522623 0.5126941
000020 b1 25 4c 3f dc e2 1e bd
       0.7974501 -0.03879057

blcok_2.2.weight f4 [10, 10, 3, 3]
000000 24 04 4b be e9 a2 16 be 10 96 58 bd b7 21 17 be
       -0.19825798 -0.14710583 -0.052877486 -0.14758955
000010 ae 89 ef bd 0c d0 86 bc fd d9 29 3b e2 59 f4 bd
       -0.11696182 -0.016456626 0.0025917285 -0.11931206
000020 b6 72 96 3d 30 78 21 be 2a 41 90 be b4 da 19 be
       0.07346098 -0.15768504 -0.28174716 -0.15024835
000030 cd 22 94 bd 17 1a 31 be 2d 2f 15 bf b9 ce d0 3e
       -0.072332 -0.17295109 -0.5827511 0.40782717
000040 7e c7 a0 3e 5f f8 28 bf 58 23 73 3d 64 e6 2a 3b
       0.314022 -0.66003984 0.05935988 0.0026077265
000050 3d 4c a7 3d 5e 47 91 bd 57 f3 80 3d e3 f3 23 3c
       0.08168838 -0.0709369 0.062964134 0.010006878
000060 11 e7 af 3c dd c2 8f 3d 65 30 d0 bd 09 bb 34 be
       0.021472486 0.07019589 -0.101654805 -0.17649473
000070 be ba c4 3d 59 39 0e be d3 94 16 be 95 6a a0 bb
       0.09605931 -0.13889064 -0.1470521 -0.004895518
000080 5a 47 ef bd 93 8d 1b bd 60 96 10 3d 29 00 49 3c
       -0.11683531 -0.037976813 0.03529966 0.012268105
000090 00 b6 f0 bd dc 0d 21 be 05 21 17 bd 2e c2 88 bb
       -0.11753464 -0.15727943 -0.036896724 -0.0041735386
0000a0 47 7f f5 bd 56 ad b3 bd fa 9a 22 bd 18 6d 1e be
       -0.11987167 -0.087732956 -0.03969858 -0.15471303
0000b0 84 c3 66 be 64 bc 97 bd 3f 0f e0 bd 3a e0 f2 3d
       -0.22535521 -0.074089795 -0.10940408 0.11859174
0000c0 de 68 90 3c d8 97 34 3b 37 74 a8 3d 23 84 1a 3c
       0.01762813 0.0027556326 0.08225291 0.009430918
0000d0 bc 84 7e bd 3e fa 67 bd b6 40 33 be 6f 68 17 3d
       -0.062138304 -0.056635134 -0.17505154 0.03696483
0000e0 d4 ba 30 be b6 4c e4 be 5f 2e fb 3c 59 7a 93 3e
       -0.1725877 -0.44589776 0.03066176 0.2880428
0000f0 eb ed 86 be 0c 9e 81 3d ad b4 c0 3e c4 af be 3e
       -0.26353392 0.06328973 0.37637845 0.37243474
000100 80 87 da 3d f8 b1 bc bd 59 bc fd bd 94 c6 48 bd
       0.10670376 -0.09213632 -0.1238944 -0.049017504
000110 e8 44 3c 3d 79 bc 14 3c f0 f7 aa bd 2e df cb 3b
       0.04596415 0.0090781385 -0.083480716 0.0062216735
000120 14 03 ce 3e 09 6d 5b be ef 52 d2 3d 17 a2 1c 3e
       0.40236723 -0.21428312 0.102697246 0.15296207
000130 fb 1f c8 be 60 db 5a 3e 0e 5c 9d be d0 34 f3 be
       -0.390869 0.21372747 -0.30734295 -0.4750123
000140 81 f1 79 be 97 18 79 bd a5 fc 44 3d 95 bd 82 bd
       -0.24408533 -0.060814466 0.048092503 -0.06383816
000150 ba 72 e0 3c be f1 60 bd e3 f0 34 bd 3a b6 72 3d
       0.027398456 -0.054918043 -0.04417504 0.059255816
000160 4b 8c e0 36 92 ca 2d bd a3 7b 34 bd a4 a6 17 3e
       6.6920525e-06 -0.042429514 -0.04406322 0.14809662
000170 dc 5c 73 bd 7b 38 2b be 3f a6 9b 3e e6 ee e0 bd
       -0.05941473 -0.16720764 0.30400273 -0.10983066
000180 09 8a 2e 3d 08 87 8e 3e a5 23 d4 3d ba e3 10 3e
       0.04261211 0.27837396 0.10358361 0.14149371
000190 4b 5d 58 3e eb 2b c7 be 32 f1 fa 3b a8 6e d1 bd
       0.21129338 -0.38900694 0.0076581473 -0.10226184
0001a0 65 83 cd 3e 87 0a 80 be d0 78 1a bf d9 06 69 3e
       0.4013931 -0.25008032 -0.60340595 0.22756518
0001b0 8d 6a bf 3c bc b5 56 3c c3 84 9a 3d 03 f7 ad 3d
       0.023366237 0.013104852 0.075448535 0.08494379
0001c0 16 61 91 bd ba 08 45 bd 6d 46 04 bd ef 2e b0 bd
       -0.07098596 -0.048104025 -0.032293726 -0.08602702
0001d0 ea cb 04 bd 88 71 6d bd de 8a 1f 3e 71 27 71 3d
       -0.03242103 -0.0579696 0.15580317 0.058875505
0001e0 1d 3d 2e 3d 41 f4 84 bd 5e 13 b8 bd c6 34 f9 3c
       0.04253875 -0.064919 -0.08988069 0.030420672
0001f0 22 20 fd bb 37 f0 26 3d 38 a7 7c bd 83 66 b9 3d
       -0.007724778 0.04075643 -0.06168291 0.09052756
000200 14 e2 df 3c ba 3d 0a 3a 70 d5 15 bd af c7 a2 3d
       0.027329482 0.000527348 -0.036580503 0.07948243
000210 da d0 8c 3d 75 61 b9 bd 3c 6e 41 bd 8a 31 19 bc
       0.06875773 -0.090517916 -0.04722427 -0.00935019
000220 48 ce 4e 3d 23 48 50 3d 73 e5 92 bd 79 84 ae bd
       0.050489694 0.050850045 -0.0717267 -0.08521361
000230 3b 43 a7 3a eb d5 06 3d 70 ed 47 3d 90 3f 2d bb
       0.0012761125 0.03291885 0.048810422 -0.0026435591
000240 0a f8 18 be fc 70 09 3e 09 57 01 3e 2f 5e a6 be
       -0.1493837 0.13422006 0.12630858 -0.3249373
000250 46 64 86 3e 5b dc ce bd 66 29 8a bc 18 f6 a8 3e
       0.26248378 -0.10100623 -0.016865443 0.33000255
000260 fd 7b de bd 21 8b c8 3d 56 37 3a be 90 83 25 3e
       -0.10863493 0.09792162 -0.18185171 0.16163468
000270 9b 7e 48 3c 77 d9 05 bf de 02 d8 bd fb 37 fa 3d
       0.012237216 -0.5228495 -0.10547422 0.12217709
000280 04 b4 03 bf f3 19 66 3e 51 1d 67 bd 5b c9 47 be
       -0.5144656 0.22470836 -0.056424443 -0.19510405
000290 ee 07 34 3d da ef 50 3e 39 da 89 3c 28 a2 62 be
       0.043952875 0.20403996 0.01682769 -0.2213217
0002a0 c5 fa e4 3d 73 bf cf 3d a2 28 33 bd 77 42 a3 bc
       0.11180643 0.10143938 -0.043739922 -0.019929154
0002b0 35 89 7d 3d c4 4e d5 3d 0d 75 8e bd f3 eb 9a bd
       0.06189843 0.10415414 -0.069559194 -0.07564535
0002c0 9a a8 30 3d 9d f1 6a bb 63 a6 26 bd ca 59 af bd
       0.04312954 -0.003584958 -0.040686022 -0.08562048
0002d0 04 88 ad 3e 0c 24 14 be fd eb 71 be ac d3 10 3d
       0.33892834 -0.14466876 -0.23625179 0.035358116
0002e0 ee f5 bb 3d 8a 16 8b be c8 30 06 bd 5b 00 32 3e
       0.09177767 -0.27165633 -0.032761365 0.17382948
0002f0 49 69 f1 bd 2d c5 fa be f0 42 15 3e b6 1a 1d bf
       -0.1178766 -0.48978558 0.14576316 -0.6136888
000300 de b4 1c bf 4e 8a 15 3f be 05 34 be 47 d4 e6 bd
       -0.6121348 0.5841416 -0.17580315 -0.112709574
000310 33 c6 28 bd 6d 28 8c 3e dd 9c 25 bc a4 28 64 bb
       -0.041204643 0.27374592 -0.0101082 -0.0034814263
000320 73 3f c2 bc b7 c9 d6 bb 80 2c 95 3d c2 dd 67 3d
       -0.023711896 -0.006554808 0.07283878 0.05660797
000330 4e 36 3a 37 c4 da 69 bd 13 a4 45 3d e6 4a b7 bd
       1.1099108e-05 -0.057093397 0.048252176 -0.089498326
000340 33 f7 f7 3d fa ef 3b 3c 68 ce 1b 3d b2 23 d0 3d
       0.121076964 0.011470789 0.03803864 0.10163058
000350 99 08 3d be 2e d9 51 3d 10 f3 56 3d 42 52 f4 bd
       -0.18460311 0.05123251 0.052477896 -0.11929752
000360 e9 87 d0 3d 6d 6b 3c bd be 51 91 3b 31 34 fb bc
       0.10182173 -0.046000887 0.0044347933 -0.030664535
000370 bc 35 ea 3d 56 ee 2a bd f1 a1 b8 3d e4 2f 81 3d
       0.1143603 -0.0417312 0.09015263 0.063079625
000380 c4 df fc 3c 78 e6 b1 3d d3 88 d3 3c 56 b5 e7 bd
       0.030868419 0.086865366 0.025822079 -0.11313884
000390 66 a9 a5 3d 20 9b 58 3d 52 bc bc 3b c4 98 9a bd
       0.08088951 0.052882314 0.005759754 -0.07548669
0003a0 72 b4 24 3d f4 c0 3a bd 37 e1 d7 be 14 9f 74 be
       0.04021115 -0.04559417 -0.42164013 -0.23888808
0003b0 b8 41 90 3e 05 37 01 be 39 6b cc 3c 19 39 b3 bd
       0.2817514 -0.12618645 0.024953471 -0.08751125
0003c0 5d ad 1c be d5 e1 03 3e fa b1 d4 bd 46 48 7d be
       -0.15300508 0.12879117 -0.10385509 -0.24734601
0003d0 00 e2 1b 3f 41 c7 a9 3d 48 18 99 be 9b d0 85 3e
       0.60891724 0.08289958 -0.29901338 0.26135716
0003e0 42 f4 ec bc bb 60 bf 3d f9 a8 9b be 1d f3 1f be
       -0.028925065 0.09344622 -0.30402353 -0.15620084
0003f0 50 fa 1f be c2 ee b2 be 1d 80 0a 3e 39 e2 53 3d
       -0.1562283 -0.34947783 0.13525434 0.051729415

blcok_2.2.bias f4 [10]
000000 da d1 2e 3e cc 3a 6d be 89 74 3d 3e dd 81 c0 3d
       0.1707224 -0.2316696 0.18501486 0.093997695
000010 4d d5 58 bd 52 19 16 3e 18 44 08 3e 31 c6 88 bd
       -0.052937794 0.14658096 0.13307226 -0.06678427
000020 8b 09 80 3c 12 28 02 bd
       0.01562955 -0.031776495

classifier.1.weight f4 [10, 490]
000000 93 96 ee bc a1 b2 98 bc 77 01 f5 3d 65 07 38 be
       -0.029124534 -0.018639864 0.1196317 -0.17971571
000010 5a 8d 58 bd b7 d9 fd bb 2e 4c 96 3d 6a ce 30 3d
       -0.05286918 -0.007746901 0.07338749 0.0431656
000020 d7 00 59 3e 2b 0e e1 3d 36 de 41 be 29 3a 92 3d
       0.21191727 0.109890305 -0.18932423 0.071399994
000030 5f 11 1a 3e bc dd 29 3e 6f d5 31 3d c8 6a ef 3d
       0.15045689 0.16588491 0.043416437 0.11690289
000040 83 b5 b7 3d e6 d1 15 bd d3 29 06 3e 18 e0 72 3d
       0.089701675 -0.036577128 0.13101892 0.059295744
000050 07 ca b6 bd f0 cc c1 bc d1 0c 19 3e a2 e0 0c bd
       -0.089252524 -0.023657292 0.14946295 -0.034393914
000060 9c a8 5c bd 49 66 c1 3d ba e8 d1 3c 37 30 9a bd
       -0.053871736 0.094433375 0.025623668 -0.075287275
000070 73 d9 b4 bd 86 f9 d6 3b 64 58 88 bc ca 83 4d bd
       -0.08830538 0.006560507 -0.01664371 -0.050174512
000080 31 49 32 3e 84 bf 1d be 86 a2 dd bc e6 63 c9 3c
       0.17410733 -0.15405089 -0.027055036 0.024583768
000090 47 0c e2 bd a3 ac 3d bc c9 d3 ac bd de a5 4c bd
       -0.11037498 -0.011576804 -0.08438832 -0.04996287
0000a0 b3 21 1e 3e e3 48 75 bd 51 11 ae 3d 41 c2 0a be
       0.15442543 -0.059883963 0.084993966 -0.13550664
0000b0 8e 89 61 be 09 9b b1 bd 18 ad 01 bd 46 24 74 3e
       -0.22025129 -0.08672149 -0.031659216 0.23841962
0000c0 29 03 e2 bc b5 5e 0f 3d e2 8a a6 3d ee 1d 9d bd
       -0.027589398 0.03500243 0.081319585 -0.07671724
0000d0 37 37 b2 bd ed c6 3f 3d 74 a8 92 bc 7e e5 cf 3d
       -0.08701938 0.04682057 -0.01790259 0.10151194
0000e0 cd c1 21 3d 99 f2 a3 bd fd ec 40 be 76 46 7c 3d
       0.039491463 -0.08005256 -0.18840404 0.061590634
0000f0 44 65 fd bd 94 44 31 3d 17 79 11 bb af c6 ba 3d
       -0.123728305 0.04327829 -0.002219742 0.09119927
000100 c5 b9 59 3e 91 70 28 bd 84 7d b7 3d 6c 7f 6e bd
       0.21262272 -0.041122977 0.08959487 -0.058226988
000110 eb 5c 89 3e 5b 52 1b 3d 26 1a 70 3d 81 c7 d0 3c
       0.26828703 0.037920337 0.058618687 0.025485756
000120 31 ca 02 bd a3 8b 07 bc b1 3f 4b 3d 35 ed 53 3e
       -0.031931106 -0.008273038 0.049621288 0.20695956
000130 69 20 ba 3d 9d 70 01 3d 13 69 2c bd 68 fc b2 bd
       0.09088213 0.031601537 -0.042092394 -0.08739549
000140 72 21 75 bd 43 1e 3b 3d 1a 77 a2 3d d5 cb 6f bc
       -0.05984635 0.045683157 0.07932873 -0.014636
000150 5a 27 dd bd 18 5e 6f 3c 2b 54 91 bd c1 91 54 bd
       -0.10798521 0.014609836 -0.07096132 -0.051896814
000160 5f da eb 3b 6a 34 a8 bd 20 19 44 3c 8c 3c 9e bd
       0.0071976627 -0.08213122 0.011968881 -0.07726392
000170 d9 1e 59 3b 9e 87 25 3e b3 7d f6 bd 72 85 d4 bd
       0.003312996 0.16165015 -0.12035694 -0.10377015
000180 f3 69 d5 ba 80 38 0d 3c 6e 08 ab 3d 21 4d 37 3d
       -0.0016282186 0.008619428 0.08351217 0.04475129
000190 91 cc 26 3e 3f 03 90 39 fd 65 fa bc 72 d1 39 3d
       0.16288973 0.0002746824 -0.03056621 0.04536576
0001a0 bf 83 5a 3d fc b9 61 3e df 48 0b 3d 1c 2b db 3a
       0.0533483 0.22043604 0.034005042 0.0016721222
0001b0 d7 25 16 3d 4c fd 1a 3d c5 35 8b 3d ce 34 3d 3d
       0.03665718 0.03783922 0.06797365 0.046192937
0001c0 2a 8f e5 3c 38 2b c7 3c a4 a5 8c 3e a0 0a 52 bc
       0.028022368 0.0243126 0.27470124 -0.012819916
0001d0 a9 8c 21 3d 3e 3e af 3b a5 d2 ee bd eb 38 4d bd
       0.039440785 0.005347996 -0.11661271 -0.05010311
0001e0 41 7f b2 bd c0 a7 11 3e db 72 33 be d8 70 f9 bd
       -0.08715678 0.14224148 -0.17524283 -0.12179726
0001f0 d8 f2 15 3e c8 74 f8 bd b3 57 72 be 6f 49 10 3d
       0.14643419 -0.12131649 -0.23666267 0.03522628
000200 1c d1 51 3c 88 aa 56 bd 84 b7 12 be 89 ba 01 3e
       0.012806203 -0.052408725 -0.14327818 0.12668814
000210 bf 3b c2 3d 6b 28 02 be f9 b9 89 3d 59 b8 78 3d
       0.09484052 -0.1271073 0.067249246 0.060722683
000220 70 9b b7 bd 80 74 f9 bd 25 17 34 bd f8 63 ae 3d
       -0.08965194 -0.12180424 -0.043967385 0.08515161
000230 ac 59 3d 3d dc be 75 3d c3 12 5f 3d bf 74 ac bd
       0.046228096 0.05999647 0.054461252 -0.08420705
000240 6f b7 a7 bd d9 05 26 be 1d e1 04 be f8 2b 5f 3e
       -0.08189284 -0.16213168 -0.12976499 0.21794116
000250 96 aa c4 bd 66 36 af bd b2 b5 18 bd 69 29 ed 3d
       -0.09602849 -0.085552976 -0.037282653 0.11580164
000260 59 7a 78 3d 41 77 de b8 2c cd c7 bd 3c 2c ce bd
       0.060663555 -0.00010607998 -0.0975593 -0.10067031
000270 76 ee de bd 7e c4 55 bc 24 84 63 3c db 08 e8 bd
       -0.108853266 -0.013047336 0.013886485 -0.11329814
000280 a6 f1 da bd 0f 23 ab bd b8 4b fa bc b6 9c aa bd
       -0.10690622 -0.08356296 -0.030553684 -0.083306715
000290 d1 80 96 3c 35 11 3f bd a2 90 14 bd f5 f2 70 3d
       0.018371971 -0.04664727 -0.036270745 0.058825452
0002a0 ca ed 8c 3d 0f ee a3 3d 07 7e 20 bc 4d 15 9b 3c
       0.06881292 0.080043904 -0.009795672 0.018931055
0002b0 d2 93 dd 3c 05 92 2c 3d 38 1b 25 3e fc 6d 06 3b
       0.027048025 0.042131443 0.16123664 0.0020512333
0002c0 2d 94 2a 3e 7e 4b 3c bd 03 d4 a3 bd f5 19 15 bd
       0.16658087 -0.045970432 -0.079994224 -0.036401708
0002d0 32 3f 3e bd 47 fd 35 3e 4f 19 8a bd d6 be 31 3e
       -0.046446986 0.17772399 -0.067431085 0.17357954
0002e0 0a a5 98 bd c9 f8 bf bd 40 69 5b bc 8a 2b 88 bc
       -0.07453354 -0.09373624 -0.013391793 -0.016622324
0002f0 ec 37 0a 3e 85 18 9c bb 64 ec 9f bc 68 85 b3 bd
       0.13497895 -0.004763665 -0.0195219 -0.087656796
000300 f9 50 12 bc 93 4e ba bd a6 f8 39 bd f3 1c 71 3d
       -0.008930438 -0.09097018 -0.045403145 0.0588655
000310 8f 94 14 3c 1b 44 a3 3b 5a 03 dd bc 53 16 bb bc
       0.009068622 0.004982484 -0.026979137 -0.022837793
000320 22 36 21 3d 61 a6 cd ba 1a e5 e7 3c eb af 6d 3c
       0.039358266 -0.0015689844 0.028307486 0.014507274
000330 a7 f3 6d bc b2 48 54 3e 39 5a 46 3e 83 88 0b 3e
       -0.014523423 0.20730856 0.19370355 0.13626294
000340 d8 aa 6a bd fd ed c7 bc 9a c8 8e 3d e6 ef d1 3d
       -0.057291836 -0.024405474 0.069718555 0.10250835
000350 5d b1 dc 3c 7c 8d 06 3e 09 62 8c 3d f5 48 5d 3e
       0.026940042 0.1313991 0.06854636 0.21609862
000360 ea 4f 07 3e 84 61 02 3e cf fc 48 3c 38 58 5f be
       0.13214079 0.12732512 0.0122673055 -0.21810997
000370 bd 7c 39 bc b2 a6 b3 3c 05 84 2b 3e 3a ad ef 3c
       -0.011321244 0.021930072 0.1674958 0.029257406
000380 e1 0d e3 3c d0 b2 af bd 84 1f 02 be 4c c8 8c 3c
       0.027716579 -0.08579028 -0.12707335 0.017185353
000390 f6 40 e8 bc 9f 02 d3 bb 24 7c 71 bd 0c 3e 0d bd
       -0.028351288 -0.0064395214 -0.05895628 -0.034483
0003a0 43 2a 02 be 66 4d d6 3b 73 f1 cb 3a 15 a2 62 3c
       -0.12711434 0.0065399883 0.0015559628 0.013832589
0003b0 be 0a e1 3c 68 e8 8c bd 76 c9 04 3a d5 13 91 bc
       0.027470943 -0.068802655 0.00050654204 -0.017709652
0003c0 1e cc 89 3d fa ee fe 3b f3 88 00 be a2 a5 7a bd
       0.067283854 0.007779953 -0.12552242 -0.061193116
0003d0 fd 43 ed bc 15 30 8b 3c 8d 0d 31 3e 86 95 07 be
       -0.028963083 0.0169907 0.17290325 -0.13240632
0003e0 6a 8c 83 3d 31 bf 8d bc f9 08 94 3e 3f 40 3d 3d
       0.06423266 -0.017303081 0.28913096 0.046203848
0003f0 39 c9 91 3c 50 d0 13 bc 32 05 eb ba 7f 04 6e 3c
       0.017796146 -0.009021834 -0.0017930625 0.014527439

classifier.1.bias f4 [10]
000000 f3 9b 8c 3d c7 ed 1f be 83 01 d3 3e 6b 0e a6 bc
       0.068656825 -0.15618049 0.4121209 -0.020270547
000010 04 4d bf be 72 57 36 be 48 ba 37 3e ec c8 77 bb
       -0.37363446 -0.17806795 0.17942154 -0.0037808968
000020 c9 d8 12 3e f5 32 de bd
       0.1434051 -0.10849563
